weights/default_conv1.pt (torch, 2069 bytes, 2 tensors)

weight f4 [5, 1, 3, 3]
0	0xbeeaf502	-0.4589005
1	0x3e80decd	0.25169984
2	0x3ddc5da4	0.10760048
3	0xbe34e6c5	-0.17666157
4	0xbeab61df	-0.33473107
5	0xbf4afec0	-0.7929497
6	0x3db002c6	0.08594279
7	0xbf38a084	-0.7211993
8	0x3f195bf7	0.5990595
9	0x3f46c581	0.7764512
10	0x3eef2515	0.4670798
11	0x3f3a9a90	0.72892094
12	0xbe86eaca	-0.26351005
13	0x3f214e8d	0.63010484
14	0xbf1fab5c	-0.6237085
15	0xbee9f9cf	-0.456984
16	0x3f06a13e	0.52589786
17	0x3ed9b34e	0.4251961
18	0xbee74b7b	-0.45174775
19	0xbe422560	-0.1895957
20	0xbf117f56	-0.56834924
21	0x3f04407c	0.51660895
22	0xbf2040f6	-0.6259912
23	0xbe488dcb	-0.1958534
24	0x3f07b099	0.5300384
25	0xbe48574a	-0.19564548
26	0x3eea5753	0.45769748
27	0x3f25655f	0.64607805
28	0xbe4fd1d9	-0.20294894
29	0xbd0db884	-0.034599796
30	0xbf05a65e	-0.5220698
31	0xbde64623	-0.11243846
32	0x3f3c27a3	0.7349798
33	0x3f4b44d9	0.7940193
34	0x3e1b4180	0.15161705
35	0xbe5f7794	-0.21822959
36	0x3f4eaf21	0.80735976
37	0xbf036faf	-0.5134229
38	0x3f153a11	0.5829173
39	0xbf3088d3	-0.6895878
40	0xbd58290a	-0.052773513
41	0xbf4e4c20	-0.8058491
42	0x3dda6d91	0.106654294
43	0x3e1fddf9	0.1561202
44	0xbeb4be05	-0.35301223

bias f4 [5]
0	0x00000000	0.0
1	0x00000000	0.0
2	0x00000000	0.0
3	0x00000000	0.0
4	0x00000000	0.0
