weights/net1_fc1.pt (torch, 137069 bytes, 2 tensors)

weight f4 [10, 3380]
000000 2d cc 80 3c b7 ac 85 3a 96 b5 86 bb 84 b2 25 3c
       0.015722359 0.0010198568 -0.004111002 0.010113362
000010 e0 e5 74 3c 13 23 1d bc ce 7d 18 bc 77 71 00 bc
       0.014947385 -0.009590882 -0.009307338 -0.007839552
000020 ba 22 86 3c 8e cd 08 bc ac 7c 6f bc 30 6e 41 bc
       0.01637398 -0.008349789 -0.014617126 -0.011806056
000030 6c b9 86 bb ad 13 ab 3b 3e 36 9a bb 36 3b ff 3b
       -0.0041114595 0.0052208514 -0.004706173 0.007789041
000040 83 b3 8b 3c d0 57 30 3c 2d 23 98 3b f8 f1 2d 3c
       0.017053371 0.010763124 0.004642865 0.010616772
000050 d3 67 ed bb 86 15 8c 3c f5 bd a8 3b ad e8 78 3c
       -0.007245043 0.017100107 0.005149598 0.015192193
000060 c4 3b e0 bb 29 2f e0 bb c6 72 ac bb 28 04 5d bc
       -0.006843062 -0.0068415594 -0.0052627055 -0.01348976
000070 cb 8f 92 3b 32 9b 87 bc cc c7 4d bc 30 c1 4e bc
       0.004472708 -0.016553495 -0.012559842 -0.012619302
000080 d8 b0 97 bb 45 eb 79 bb fd 09 5c bb c8 84 68 bc
       -0.0046292357 -0.0038134616 -0.003357529 -0.014191814
000090 6b f6 8a bc 7d de 6c bc a9 1d 88 3c 45 00 87 bb
       -0.016963204 -0.014457342 0.016615706 -0.004119905
0000a0 27 d9 12 bb 9e 50 95 bb af 3d ae 3b 54 00 4c 3b
       -0.0022407265 -0.0045567295 0.005317412 0.0031128125
0000b0 d8 dd 04 bc 9b 4a 04 3c 07 2a 70 bc 8a 54 0a 3c
       -0.008109532 0.008074428 -0.014658458 0.008443007
0000c0 b3 3f 49 3c 75 f1 60 bc a3 04 79 bc 29 a2 c3 3b
       0.0122832535 -0.013729443 -0.015198859 0.0059702587
0000d0 ed a6 46 3b e7 3f fc bb f4 6a 63 bc d1 eb 0e 3b
       0.0030311898 -0.0076980474 -0.01388048 0.0021808038
0000e0 c2 58 e2 3b a8 45 8a 3c 44 d0 fc bb 72 63 7e bb
       0.0069075534 0.016878918 -0.007715257 -0.0038816598
0000f0 3b 3a 56 3c 46 12 7d 3c f8 ac 6a bc ce e8 fa 3b
       0.013075407 0.015446251 -0.0143234655 0.007657147
000100 18 cb 50 bc 93 3e 91 ba 2f bb 74 b9 81 db f7 bb
       -0.012743734 -0.0011081271 -0.00023339385 -0.0075640087
000110 93 da b8 bb 7e 53 2d bc 6a 26 b5 bb 02 29 75 bc
       -0.0056412905 -0.010578988 -0.005528261 -0.01496339
000120 31 be 08 3b 88 21 b1 b7 85 58 01 3a c5 82 83 3c
       0.0020865316 -2.1115658e-05 0.000493415 0.016053567
000130 c3 ab 0a bc fe c1 6b bc 4e 07 7a 3b 6b 7d 96 3b
       -0.008463803 -0.014389513 0.0038151327 0.0045925877
000140 92 c6 2f 3c b1 a0 81 bc 02 79 59 3c ad 85 60 3b
       0.010728495 -0.015823694 0.013273479 0.0034259364
000150 b7 46 82 3c 90 0a 55 3c b4 30 85 3c 18 dc 60 3b
       0.01590286 0.013003007 0.016258575 0.0034310874
000160 a4 5e 7e 3c e7 00 50 bc 51 3a 3e 3c f7 34 cf 3a
       0.015525494 -0.012695528 0.011610583 0.0015808631
000170 95 25 72 3c 6c 5c de 3b 51 7d 9a bb 64 ee dd 3b
       0.014779468 0.00678592 -0.004714646 0.006772803
000180 db 30 3c 3c c4 cf 5d 3c 51 dd 19 3c 99 00 5c 3c
       0.011486257 0.013538305 0.009391145 0.013427877
000190 93 1c 5c bc ef ac 91 3a 51 7f 33 bc b2 4f f8 bb
       -0.013434547 0.001111416 -0.010955648 -0.00757786
0001a0 5e 94 fe ba 2c a6 8a 3a 82 36 11 3c d0 90 5f 3c
       -0.0019422879 0.0010578088 0.008863093 0.013645366
0001b0 78 da ed 3b 25 7e a1 3a ff ab 2d 3c 98 d8 1f ba
       0.0072587095 0.0012320919 0.010600089 -0.00060976436
0001c0 07 23 6a 3c a5 1d 6c bc 72 f1 8b bc d5 01 6c bc
       0.014290578 -0.014411365 -0.017082904 -0.014404734
0001d0 1a f9 88 3c 91 00 67 bc c7 f1 47 bc ba 3d fe 3b
       0.016720343 -0.014099256 -0.01220364 0.007758823
0001e0 4a 01 c9 3a b5 f0 7c bc 66 36 16 bc b1 ed 5c 3c
       0.0015335467 -0.015438248 -0.009168243 0.013484404
0001f0 b5 1c 61 bc dd f9 ec 3b c3 af e1 3b 0d 11 8b 3c
       -0.013739754 0.0072319345 0.0068874075 0.016975904
000200 6a 4b e5 3b 86 0f 5b bc 08 e9 65 3c 66 7c 1f bb
       0.0069975154 -0.0133704 0.01403261 -0.0024335622
000210 6d 2e 89 bb 50 dd 8a 3c 99 20 e6 3b 8c 5a 66 3a
       -0.0041864426 0.016951233 0.007022929 0.0008787296
000220 da fd 04 3b e3 e3 f6 bb ec ee 40 3b 52 a7 a9 bb
       0.002029291 -0.0075344904 0.0029439284 -0.005177417
000230 2e 54 f9 3b 7c e2 53 bc 03 ea 9c bb d9 de fd bb
       0.007608912 -0.012932416 -0.0047886386 -0.007747513
000240 e4 bc 21 bc f2 92 4c 3c 6f c9 49 ba a2 4a 54 ba
       -0.009871695 0.012486206 -0.00076975574 -0.00080982794
000250 2d e3 41 3c 18 3f 8a 3c 03 c5 74 3c 8a 3c 6a bc
       0.011833948 0.016875789 0.014939549 -0.01429666
000260 aa 1f d4 bb f6 0f d0 3a a8 68 0f bc 80 a1 62 ba
       -0.006473501 0.0015873897 -0.008752979 -0.0008645281
000270 38 85 b6 ba 9c b0 2c bb 87 d7 17 3a 3f ed 2b 3a
       -0.00139252 -0.0026350385 0.0005792309 0.0006558485
000280 c9 f0 44 bc 79 02 99 3b 95 ee 64 ba 9e ab 3e 3c
       -0.012020298 0.004669484 -0.0008733061 0.011637596
000290 fa 07 fe 3b f6 d5 55 bc b7 9e 4b 3c 02 a4 8a 3c
       0.0077524157 -0.013051501 0.012427977 0.016923908
0002a0 7b 40 d1 bb 36 fe 85 3c 88 f8 6a 3b 94 19 57 3b
       -0.0063858605 0.016356569 0.0035853703 0.0032821642
0002b0 2a 5b 79 3b 36 07 23 bc c1 6a 22 3b d0 96 3a 3c
       0.0038048723 -0.00995045 0.0024782869 0.011388496
0002c0 f5 d7 9b bb 35 70 dd bb 77 98 77 bc 35 c1 81 3c
       -0.0047559687 -0.006757761 -0.015112034 0.015839199
0002d0 8a 0e 2e bc 40 6e 37 bc 9d 13 53 bb 69 20 5a 3c
       -0.010623584 -0.011195719 -0.0032207735 0.013313391
0002e0 7c 68 d6 3b 5f 43 5a 3c 7b 16 02 bc 1f de 84 3c
       0.006543217 0.013321727 -0.00793993 0.016219197
0002f0 cf d2 8a 3b 23 ab 02 3c 0b bb c0 bb 2a 9a 86 bc
       0.004236556 0.0079753725 -0.0058816723 -0.016430933
000300 5f 03 27 3c fc 2e e8 bb 20 25 6e 3c 4d cd 05 bc
       0.010193675 -0.007085679 0.0145352185 -0.008166623
000310 9f ed 1f 3c a6 38 7d bc 76 40 73 3b 5e 8c e0 3b
       0.009761243 -0.015455401 0.003711728 0.0068526706
000320 4b d8 69 bc c0 06 74 bc 54 d0 14 bc ac 91 bd 3b
       -0.01427276 -0.014894187 -0.009082872 0.0057851877
000330 56 14 0e 3c 7e 88 65 bc 8d ec 54 bc a9 f9 d5 3b
       0.008671841 -0.014009593 -0.012995851 0.006530006
000340 2f dc ab 3a d3 8f 2c 3b 84 1e 1f bb 15 56 2e bc
       0.0013111884 0.0026330843 -0.0024279663 -0.010640641
000350 ca e4 1f bc 75 b3 62 3c c3 ea 41 bc a9 b1 51 3b
       -0.009759137 0.013836731 -0.011835757 0.0031996763
000360 24 7e 83 bc 0d e3 b5 38 91 d1 76 3b 4b 3c 9f bb
       -0.01605136 8.673044e-05 0.0037661532 -0.0048594824
000370 aa a9 e7 bb eb 7e 3b 3c 7b ff 32 bc 8f 95 11 bc
       -0.007069786 0.011443834 -0.010925169 -0.008885755
000380 a4 88 45 bc e7 1e 86 bc df 55 ff bb fa 1b 66 bc
       -0.012056503 -0.016372157 -0.007792219 -0.014044756
000390 52 b0 ba bb 0e a6 bd 39 0a 99 de bb 26 82 20 bc
       -0.0056972886 0.0003617261 -0.006793146 -0.009796655
0003a0 60 52 b6 ba 9b 17 61 bb b4 8c 2a bb 8d 2a 24 bb
       -0.0013910048 -0.0034346345 -0.0026023807 -0.0025049776
0003b0 f9 ad 45 bc cd 78 8d bb be 37 eb bb 46 fd 8a 3a
       -0.012065404 -0.004317379 -0.007178276 0.0010604046
0003c0 0e 48 4c 3a 0b d9 b8 3a 3a 92 15 bc bb 53 be bb
       0.00077927194 0.001410277 -0.009129101 -0.0058083213
0003d0 01 0c b3 3b 21 c7 56 3c 78 7d 88 bc 88 e9 e6 bb
       0.0054640775 0.0131089995 -0.01666139 -0.007046882
0003e0 31 87 99 ba 42 3e 34 3c 14 7f 45 ba 6d 34 74 bc
       -0.0011713264 0.011001172 -0.000753389 -0.014905077
0003f0 64 c5 19 3c 31 7d a2 b9 e5 55 8a 3c de 28 be bb
       0.0093854405 -0.00030992323 0.01688666 -0.0058032116

bias f4 [10]
000000 a9 e2 47 bb e8 ca 9a 3b 30 ff 0b 3c 59 47 e3 3b
       -0.003050009 0.0047238953 0.008544728 0.0069359955
000010 47 77 4c 3c aa 1a 6d bc 71 9f 9a bb bf 53 08 3c
       0.01247961 -0.014471689 -0.004718714 0.008320748
000020 c5 19 1f bc 09 76 9f 3b
       -0.009710734 0.004866366
