weights/net2_conv2.pt (torch, 3133 bytes, 2 tensors)

weight f4 [7, 5, 3, 3]
0	0x3d0f2096	0.034943186
1	0x3e0bb382	0.13642696
2	0xbe83ffb2	-0.25781018
3	0x3e76aee7	0.24090157
4	0xbe26f9ba	-0.163062
5	0x3e608af8	0.21928012
6	0xbd207edc	-0.039183483
7	0x3e9a15eb	0.30094847
8	0x3dcefe09	0.10107047
9	0xbe8589ba	-0.2608164
10	0xbe9f3210	-0.31092882
11	0x3e881304	0.26577008
12	0xbea14a3f	-0.31501958
13	0x3e89d7e2	0.26922518
14	0xbeba66dc	-0.364066
15	0xbac7277a	-0.001519426
16	0xbe23a954	-0.15982562
17	0xbddb370f	-0.10703861
18	0x3e673cf9	0.22581853
19	0xbeb8c01e	-0.36084074
20	0xbe5a697e	-0.21329305
21	0x3eaea6a9	0.34111527
22	0x3ea10da8	0.3145573
23	0x3d877dfe	0.06615828
24	0x3df64f2b	0.12026819
25	0x3eb0590a	0.3444293
26	0x3d9c7918	0.07640284
27	0xbe2d7d48	-0.16942322
28	0x3eade012	0.33960015
29	0xbe90ad90	-0.28257418
30	0x3e1534c4	0.1457091
31	0x3c8f0dd3	0.017462647
32	0x3e98c70f	0.2983937
33	0x3eaad180	0.3336296
34	0x3e53cbc9	0.20683207
35	0xbe89984d	-0.2687401
36	0x3daea302	0.08527185
37	0xbd23719f	-0.03990328
38	0xbe986bf0	-0.2976985
39	0x3c4e9156	0.012607893
40	0x3deed39f	0.11661457
41	0x3c47cb3f	0.012194454
42	0xbe1a4c24	-0.15068108
43	0xbe47f130	-0.195256
44	0x3c80e42d	0.015733803
45	0xbe7d7e7a	-0.24755278
46	0xbeb5c468	-0.3550141
47	0xbe2db58c	-0.16963786
48	0x3e8f271f	0.27959535
49	0x3cd0df24	0.025497027
50	0xbe8ea86f	-0.2786288
51	0xbeae55f6	-0.34049958
52	0x3e8717b1	0.26385263
53	0x3e04ebaa	0.12980524
54	0x3cfb240a	0.030656833
55	0xbe9d6c7d	-0.30746832
56	0xbd47a34e	-0.048739724
57	0x3e52f644	0.20601755
58	0xbe40c391	-0.18824603
59	0x3eb2acdc	0.34897506
60	0x3e54300b	0.20721452
61	0x3eb42dd2	0.35191208
62	0xbe6a87a5	-0.22903307
63	0xbeb3652f	-0.35038134
64	0x3c8c1781	0.017101051
65	0xbdfe8d2d	-0.12429271
66	0xbeb25c16	-0.3483588
67	0xbeb98618	-0.36235118
68	0xbd5c8133	-0.05383415
69	0x3d2e4fa4	0.04255642
70	0x3e52d974	0.20590764
71	0x3e6349de	0.22196147
72	0xbe9f8336	-0.31154794
73	0x3e4b1a46	0.19834241
74	0xbe6c4eb0	-0.23076892
75	0xbd18b3c8	-0.037280828
76	0x3e2fcc20	0.17167711
77	0xbe003c67	-0.12523042
78	0xbe514edd	-0.2044024
79	0xbe81e983	-0.25373468
80	0xbeb008b5	-0.34381643
81	0x3e9402f3	0.289085
82	0x3e8de322	0.2771235
83	0xbe683be5	-0.22679098
84	0xbe8c9de8	-0.27464223
85	0x3e5bd4e2	0.21467927
86	0xbe17fb6d	-0.14842005
87	0xbd372339	-0.044711325
88	0xbe4b9523	-0.1988111
89	0x3dff35b7	0.12461417
90	0xbe1798ca	-0.14804378
91	0x3ebaaa2e	0.36457962
92	0x3e3d377a	0.18478194
93	0x3c39f869	0.0113507295
94	0xbe2e3c78	-0.17015254
95	0x3e9824d3	0.29715595
96	0x3eb9b858	0.36273456
97	0x3eb7bdc2	0.3588696
98	0xbea08c1e	-0.313569
99	0x3e469dcb	0.1939613
100	0xbe5d59d9	-0.21616305
101	0x3e9271ce	0.2860245
102	0xbe8c0d20	-0.27353764
103	0xbd96d80f	-0.07365429
104	0x3e61eade	0.22062251
105	0xbd83581e	-0.064132914
106	0x3ce1af3c	0.027549379
107	0xbb37d397	-0.0028049701
108	0xbb7534a8	-0.0037415419
109	0x3c242058	0.010017477
110	0x3e83aa3f	0.25715825
111	0x3c443774	0.011976112
112	0x3de83252	0.11337723
113	0x3e65fca0	0.2245965
114	0xbe10d5e2	-0.1414409
115	0xbe9b15ee	-0.3029017
116	0xbeb28724	-0.3486873
117	0x3e337126	0.17523631
118	0xbe3c6ea8	-0.18401587
119	0xbe01cbe0	-0.12675428
120	0xbeb0a754	-0.3450266
121	0x3e339c7d	0.17540164
122	0xbe34731d	-0.17622037
123	0x3e4da356	0.20081839
124	0xbe49912e	-0.19684288
125	0x3e0bc7b8	0.13650405
126	0x3e355df0	0.17711616
127	0xbde331e2	-0.11093499
128	0xbe81af16	-0.25328892
129	0xbe66e74d	-0.22549172
130	0x3eb7f8e3	0.35932073
131	0x3e986215	0.2976233
132	0x3c0c6042	0.0085678715
133	0xbe2fa02f	-0.17150949
134	0xbe800c9d	-0.25009623
135	0x3e848b97	0.2588775
136	0xbe479052	-0.19488648
137	0x3e790ccf	0.24321292
138	0x3e28cc92	0.16484287
139	0x3ea3d254	0.31996405
140	0x3ea25b87	0.31710455
141	0x3e92899f	0.28620622
142	0x3e4636e0	0.1935687
143	0xbe828cdc	-0.25498092
144	0xbe9e6b86	-0.3094141
145	0x3d463cea	0.048397936
146	0xbdeef072	-0.11666955
147	0xbeba8661	-0.36430648
148	0x3daae7c2	0.083449855
149	0x3e95d2e0	0.29262447
150	0xbe38e8cf	-0.1805756
151	0xbe95b278	-0.29237723
152	0xbd30eef7	-0.043196645
153	0x3d9ec066	0.07751541
154	0x3eb4fe46	0.35350245
155	0xbd3d718c	-0.046250865
156	0x3cee0a26	0.029057574
157	0x3e4e366f	0.20137952
158	0x3e39d243	0.18146615
159	0xbe9075e1	-0.28214934
160	0x3e862530	0.26200247
161	0x3dc0580d	0.09391794
162	0x3e88eb47	0.26742002
163	0xbd039a53	-0.032129597
164	0x3d4ad728	0.049521595
165	0xbe4d64d4	-0.20057994
166	0xbe153b34	-0.14573365
167	0x3e4b0cec	0.19829148
168	0x3c9b17c5	0.018932233
169	0xbe4b67db	-0.19863836
170	0xbead4a15	-0.33845583
171	0x3cc98643	0.024600154
172	0xbe832ce1	-0.25620177
173	0xbe1fe048	-0.156129
174	0xbe98b4a6	-0.29825324
175	0xbe163c5c	-0.14671463
176	0x3cdebcbf	0.02718961
177	0x3e83b766	0.2572586
178	0xbdc7fa36	-0.09764521
179	0x3e86a45a	0.26297265
180	0x3d20d09b	0.03926144
181	0xbe3df6d6	-0.18551192
182	0x3e5bb1dd	0.21454568
183	0x3e770855	0.24124272
184	0x3d39492f	0.04523581
185	0x3eb42a8c	0.3518871
186	0x3e5c8b9b	0.2153763
187	0xbe8fb572	-0.2806812
188	0x3e69a798	0.22817838
189	0xbe50bf45	-0.20385464
190	0xbe54cfc0	-0.20782375
191	0x3e92a011	0.28637746
192	0x3e4d585e	0.2005324
193	0x3e704697	0.23464428
194	0xbe030942	-0.127965
195	0x3e95a14d	0.29224625
196	0x3dc1377a	0.094344094
197	0x3eb16f1f	0.3465509
198	0xbea854f5	-0.32877317
199	0xbe206850	-0.15664792
200	0xbd8c2691	-0.068432935
201	0x3ea4e5c1	0.32206538
202	0xbe6a3c07	-0.22874461
203	0xbd9900f7	-0.07470887
204	0x3d99aeaf	0.075040214
205	0xbe06b11f	-0.13153504
206	0xbe315934	-0.17319185
207	0xbe928839	-0.28619555
208	0x3e28b86b	0.164766
209	0xbdf59c61	-0.119927175
210	0xbd5896a3	-0.052878033
211	0x3d93c008	0.072143614
212	0xbe2906b3	-0.16506462
213	0xbe95c9db	-0.29255566
214	0x3dea4606	0.11439137
215	0xbe5af538	-0.21382606
216	0xbe6f5bf2	-0.23374918
217	0xbe5d567b	-0.21615021
218	0x3d84d21d	0.064853884
219	0xbe9b849e	-0.30374616
220	0xbd8b1e04	-0.067928344
221	0xbe3d9927	-0.18515454
222	0xbd100b60	-0.035167098
223	0x3e03c858	0.12869394
224	0xbe8a3c0f	-0.26998946
225	0xbda8bc93	-0.08239093
226	0x3d4fb88e	0.050713114
227	0x3dfea059	0.12432928
228	0x3e73a2b2	0.23792532
229	0xbdef7c5d	-0.11693642
230	0x3e9fe0df	0.3122625
231	0xbe542401	-0.2071686
232	0xbe6a14c9	-0.22859491
233	0xbd020ec7	-0.031752374
234	0xbe61ab8d	-0.22038098
235	0xbe0aee77	-0.1356753
236	0xbe7362da	-0.23768178
237	0xbe902e08	-0.2816012
238	0xbebaac85	-0.36459747
239	0xbeada4e5	-0.33914867
240	0xbe8a9adf	-0.27071282
241	0xbea75fe2	-0.3269034
242	0xbe09c2e0	-0.13453245
243	0xbd590273	-0.05298085
244	0xbe930e15	-0.2872168
245	0xbe17a5b8	-0.1480931
246	0xbe5536c4	-0.20821673
247	0xbc210c2c	-0.009829562
248	0xbd7dfa5d	-0.062006343
249	0xbe695cce	-0.22789308
250	0xbe063dd3	-0.13109522
251	0xbe5331e9	-0.20624508
252	0x3e9dce6b	0.30821547
253	0x3ea6f8cc	0.32611692
254	0xbdf0a108	-0.11749464
255	0xbd96d68e	-0.07365142

bias f4 [7]
0	0x00000000	0.0
1	0x00000000	0.0
2	0x00000000	0.0
3	0x00000000	0.0
4	0x00000000	0.0
5	0x00000000	0.0
6	0x00000000	0.0
