weights/net2_fc1.pt (torch, 163181 bytes, 2 tensors)

weight f4 [10, 4032]
00000000: 134f 383c 27b7 d13b c2da 5c3b dafe 0ebc
00000010: 8147 2e3c b9b1 fdbc 49d3 16bd fe29 5bbc
00000020: acd3 be3c 9251 14bd 9068 39bb d6a1 15bd
00000030: 6966 79bc 4a4d d3bc a9c8 053d d6e5 133d
00000040: cc99 09bc 79b3 f8bc 5193 17bd dfe5 fa3c
00000050: 9522 85bc e3f1 b3bc 3d7f d8bc fffe 1fbc
00000060: 43e3 b7bc 8944 2e3c 0647 b6bc 7bdd be3c
00000070: 550f bb3c 105a 033d eec6 ed3c 7a59 663c
00000080: 3c1a 253c 63da 213b 1c43 d8bc 7e23 943c
00000090: b022 693c 0d49 b33c 08db 873c 366d 7fbc
000000a0: d2f5 fe3c 4273 513c 2f52 903c e796 dc3b
000000b0: 261a 003d 29d3 adbb 3e45 c63b 40a8 d3bc
000000c0: 8eb6 ecbc 644f 273c 97ea e7bc a04b 89bc
000000d0: 9904 50bc 0632 53bc 8e2e b0bc 227b 5f3b
000000e0: 7eb7 f2bb a3d6 f8bc 67e9 7a3b 61e5 1a3c
000000f0: 16f4 583c e3a0 e03c 8cce 3a3c 062e 0cbc
00000100: fc68 183d e1bd 5e3c e165 f9bc f71d 8d3b
00000110: b954 debb 9c3d cabc 02a2 f93b 9eb5 fe3c
00000120: 4480 cb3c 50e4 8ebb d5ba e63c 7f03 13bc
00000130: 6b45 a03c 4870 4eb9 0fa1 c03c 5478 cc3a
00000140: 9058 f83c bb18 9ebc 939c 09bd 1fd0 c9bc
00000150: e31d 18bd 1c18 143d 56dd 1b3d 62e6 10bd
00000160: ac32 c1bc 583d 08bc 251a 1bbd af08 1cbc
00000170: 0b9f e33b 974b 44bb e94c 963c 8efc 4dbb
00000180: 9c39 00bc 414c 863c 3d04 fcba 89c1 a1bc
00000190: 394c 10ba 58ce 943c 7bd9 ce3b 4b84 b3bc
000001a0: 58fc efbb 98f1 3fba 69c4 8d3c 0909 8e3c
000001b0: 5110 023d 599b 423c 7bca f2bc f380 a8bc
000001c0: 2df3 0c3d 14eb 92bc de11 18bd 2c25 593c
000001d0: e81b ab3b f924 80bb 7ca1 1cbd 163d c43c
000001e0: 35fa 9cbc dc99 c43b 0aec 5cbb cd7e 30bc
000001f0: ce05 99bb 43ed f9bc d5a2 0c3c f632 c2bb
00000200: 296a b23c 6736 8d3c ff3a 483c 6a40 6ebb
00000210: 978b 2e3c c1c5 053d e045 753c c369 e03b
00000220: 89cb 143d 7d1d f3bb 6e4b f6bc fbba c13c
00000230: bcea b0bb e8f5 623c 28b3 003d fcb8 c1bb
00000240: c748 0bbd 3800 a1bc f1f9 703c 6791 4cbc
00000250: 570e 163c 7a72 a73c dd94 f2bc 4d31 093d
00000260: 2f30 b8bc 915c afbc 1465 cebc e666 61bc
00000270: 40f4 0fbc ffba 203c d424 0b3d 0830 c7bc
00000280: 9c8a 11bc 0f86 aabc 770b 8e3c bcd3 533c
00000290: 54c8 37bb a8cb 6a3c 9fd8 443b 7875 69bb
000002a0: 1f54 10bd fee5 ee3c cd18 483c c97f ee3c
000002b0: 6a50 0cbc 0706 163c 76b3 903c 0066 813c
000002c0: a159 9a3c bb13 efbc 5f5d 68bc 0895 da3c
000002d0: eda3 44b9 0a54 8e3c 842d 0a3d 76c4 c03c
000002e0: e5ea 623c 66c3 943c ef59 03bd d549 19bc
000002f0: 162e e03c 2ee5 033c a8fb 08bd 04db b23b
00000300: 4329 043d f768 0d3d 17f3 d93b 1070 903b
00000310: bc86 723c cee4 6ebc 12f6 a6bb 0354 e5bc
00000320: 8854 09bd c0a4 4a3c bc7a 0d3d 8e11 253c
00000330: 7c79 31bc c03f 93bc 5886 5b3c 7cd7 5f3c
00000340: f469 b73c db1c de3c d830 c5bb 6c9b b03b
00000350: 257b 55bc 9297 c53c 940b 603c 1be8 b8bb
00000360: e8f7 ab3c 8aea debc 25c7 90bc fd30 1a3d
00000370: fd64 b43c 5717 03bd 67bc 10bd 547c f3bc
00000380: 27ed 21bc c372 f1bc 4ea7 cabc 3299 653c
00000390: a2ab 60bc 7e3b cd3c fa34 31bc eeec 36bc
000003a0: 6233 17bd ad25 ea3c caca 75bc ef0e 1abb
000003b0: e342 0ebd e1fb f33c fc99 963c 8e61 bcbc
000003c0: 6a53 1cbd 88e2 fc3c c60a e7bc 75aa 213c
000003d0: 09b3 0f3d 3e75 843c e8f2 e33a a385 d3bb
000003e0: f4da 1dbd b959 053d 7ac6 923c 7489 133d
000003f0: d27a 94bc 1314 d23c 115a ca3c 062a ecbc
0.0112493215 0.0064000073 0.0033699726 -0.008727754 0.010637165 -0.030968534 -0.03682259 -0.013376711
0.023294292 -0.036210604 -0.0028291084 -0.036531292 -0.01522217 -0.02579369 0.032662068 0.03610786
-0.008398484 -0.030359017 -0.037005726 0.03062719 -0.016251842 -0.021965927 -0.02642786 -0.009765386
-0.022447234 0.010636457 -0.022250663 0.02329897 0.02283446 0.032068312 0.029025521 0.014059419
0.010077056 0.002469682 -0.026399188 0.01808333 0.014229462 0.02188542 0.016583934 -0.015590003
0.031123076 0.012783827 0.017617313 0.006731856 0.031274937 -0.0053047133 0.006050735 -0.025837064
-0.028895643 0.010211799 -0.028310103 -0.016759694 -0.012696409 -0.0128903445 -0.021506574 0.0034100492
-0.007407128 -0.030375784 0.0038286091 0.009454102 0.013241788 0.027420467 0.011401784 -0.008555895
0.037209496 0.013595075 -0.030444087 0.0043065506 -0.006785002 -0.02468758 0.00761819 0.031092461
0.024841435 -0.004360713 0.02816526 -0.0089730015 0.019564351 -0.00019687519 0.023514299 0.0015599825
0.030315667 -0.019298902 -0.033596586 -0.024635373 -0.037137877 0.036155805 0.03805288 -0.03537596
-0.023583733 -0.008315407 -0.03786673 -0.009523555 0.0069464496 -0.0029952282 0.01834722 -0.0031431052
-0.007826235 0.016393783 -0.0019227337 -0.019745605 -0.0005504522 0.018164799 0.006312547 -0.021913668
-0.007323783 -0.0007322072 0.01730557 0.017338293 0.03175384 0.011877858 -0.029637566 -0.0205693
0.034411598 -0.01793436 -0.037126414 0.013253491 0.0052218325 -0.0039106575 -0.03823994 0.02395491
-0.019162277 0.005999787 -0.0033710026 -0.010772419 -0.0046698814 -0.030508643 0.008583744 -0.005926485
0.021779137 0.017237855 0.012221097 -0.0036354312 0.010653398 0.032659296 0.014970273 0.0068485453
0.03632692 -0.0074192868 -0.030065265 0.02364873 -0.0053990763 0.013852574 0.031420857 -0.0059119444
-0.034004953 -0.019653425 0.014708028 -0.0124858385 0.009158692 0.020440329 -0.029612 0.033494283
-0.022483913 -0.021406444 -0.025194682 -0.013757443 -0.008786261 0.009810208 0.03397067 -0.024314895
-0.008883145 -0.020815877 0.017339451 0.012928899 -0.002804299 0.014330782 0.0030036343 -0.0035622995
-0.035236474 0.029162403 0.012212944 0.029113667 -0.008564094 0.0091567105 0.017663699 0.015795708
0.018841567 -0.029184213 -0.014182418 0.026682392 -0.00018753084 0.017374057 0.033734813 0.02353118
0.0138499485 0.01815958 -0.03206819 -0.009355982 0.027365725 0.008050246 -0.033443123 0.0054582376
0.032265913 0.03452393 0.006651293 0.00440789 0.014802631 -0.0145809185 -0.005095252 -0.027994161
-0.03352788 0.012368381 0.034540877 0.010074986 -0.010832187 -0.017974734 0.013398729 0.013662215
0.02238939 0.027113369 -0.0060177855 0.0053896215 -0.013029848 0.024120126 0.013674635 -0.0056429035
0.020992234 -0.027211446 -0.017673085 0.037644375 0.022020811 -0.03200468 -0.035335924 -0.02972237
-0.009883202 -0.029473668 -0.02473798 0.014013575 -0.013712795 0.025052782 -0.010815853 -0.011164887
-0.036914237 0.028582418 -0.015001962 -0.0023507436 -0.034731757 0.029783191 0.018383972 -0.022995736
-0.038165487 0.030869737 -0.02820338 0.0098673 0.03508285 0.016169187 0.0017391117 -0.0064551397
-0.038538888 0.03255627 0.017916907 0.036019757 -0.018124972 0.025644338 0.02470115 -0.028828632

bias f4 [10]
00000000: 0000 0000 0000 0000 0000 0000 0000 0000
00000010: 0000 0000 0000 0000 0000 0000 0000 0000
00000020: 0000 0000 0000 0000
0.0 0.0 0.0 0.0 0.0 0.0 0.0 0.0
0.0 0.0
