models/A1 - HT (Trainable).pt (torch, 137941 bytes, 4 tensors)

conv1.weight f4 [5, 1, 3, 3]
1.043804 0.02368873 -0.040143013 0.027409073 1.0667893 0.015946096 -0.010063909 0.039964087
1.0454607 -0.05586513 0.029765507 1.0773553 0.019511964 1.0934368 0.017085923 1.0921711
0.048675027 -0.04784076 1.1601968 1.2274437 1.155699 0.024821661 0.030796446 0.006838052
-0.029212609 -0.021270696 -0.012541453 1.1673898 -0.004533843 -0.057087693 1.1832571 -0.011968042
-0.03796007 1.2155527 0.03400724 -0.007904693 0.9644205 1.0163519 0.9844674 0.9839711
1.0361564 1.011518 1.0208312 1.0634775 1.0214192
00000000: 5f9b 853f de0e c23c 006d 24bd fe88 e03c
00000010: 8d8c 883f 63a1 823c 18e3 24bc 62b1 233d
00000020: a8d1 853f d6d2 64bd cbd6 f33c c7e6 893f
00000030: 8ed7 9f3c bdf5 8b3f c7f7 8b3c 43cc 8b3f
00000040: 775f 473d acf4 43bd 5481 943f e01c 9d3f
00000050: f2ed 933f cc56 cb3c d448 fc3c bd11 e03b
00000060: 484f efbc e23f aebc ab7a 4dbc 076d 953f
00000070: a290 94bb c9d4 69bd f874 973f 9b15 44bc
00000080: 057c 1bbd 3b97 9b3f 2d4b 0b3d af82 01bc
00000090: 43e4 763f d217 823f 0e06 7c3f 88e5 7b3f
000000a0: c6a0 843f 6c79 813f 99aa 823f 0820 883f
000000b0: ddbd 823f

conv1.bias f4 [5]
0.20579365 -0.00019654412 0.00063252595 -0.00011363075 -0.00050849805
00000000: 92bb 523e 6917 4eb9 19d0 253a 0b4d eeb8
00000010: ba4c 05ba

fc1.weight f4 [10, 3380]
0.039635792 0.0434189 0.01678583 0.008207907 -0.0038879134 -0.011910537 -0.00032209308 -0.005473765
0.012206586 -0.010217473 -0.005957744 0.002369033 -0.0041032527 0.0019632566 -0.014321481 -0.0041438853
0.031582884 0.022394396 0.01171939 0.02995638 0.0010397498 0.0025832623 -0.0021258355 0.021793205
0.028153775 0.026278947 0.021590138 -0.00076578034 0.029081803 -0.0047490685 -0.0040272893 -0.022508088
-0.005001834 0.009182775 -0.0017897186 -0.023675911 -0.015608813 -0.006300035 0.01389222 0.002362339
0.010410345 -0.0018261262 0.009765429 0.004549113 -0.0073763435 0.021454055 -0.00015842634 0.014418484
0.013779027 -0.0073182695 -0.0017978107 0.035416756 0.01639795 0.015855469 -0.008434772 0.017917039
0.016162544 0.013024121 -0.01035631 0.011022922 0.023635285 0.0112184305 -0.016290208 0.008037258
-0.014346094 0.0023935006 -0.0006606602 -0.006828851 -0.0075175334 -0.0072319526 -0.008428542 -0.014337873
0.024189783 0.010422834 0.014128095 0.030963385 -0.0012422714 -0.007124304 0.01049949 0.00423175
0.040919572 -0.010918326 0.022208808 -0.0025734967 0.013734512 0.013544527 0.019343596 0.0037789186
0.0117734205 -0.009512179 0.01490862 -0.0037068387 0.008327762 0.0029505587 -0.009125622 0.008556633
0.014120443 0.008512579 0.012100729 0.030700361 -0.0057630814 0.018601889 -0.011546095 -0.017622229
0.013817015 0.0015195651 0.016047176 0.034183662 0.012958513 5.2182048e-05 0.011167199 -0.010068351
0.014757964 -0.010436774 -0.023961946 -0.013834607 0.02188895 -0.011004924 -0.013000031 0.005179295
-0.00042131584 -0.012440151 -0.007640339 0.009226969 -0.013971172 0.014120195 0.017399514 0.027521478
0.015830616 -0.033332337 0.034620397 0.0040381323 -0.0005174753 0.023975065 0.020978741 0.0015054512
0.0046712244 -0.011221147 -0.0023766698 -0.005354516 0.004252269 -0.018406909 -0.0049061594 -0.0059206905
-0.005000053 0.016122885 -0.0049335994 0.013001431 0.022474967 0.012264731 0.011314236 -0.015003066
0.00089154823 0.0065715844 -0.00014263757 -0.0032804387 0.03830699 0.010687067 0.020121751 0.008900392
-0.0013329913 0.01255231 0.005256278 0.016144607 0.0121744815 -0.022110846 0.01180627 0.015417649
-0.009494289 0.017492602 0.0035646847 0.010488825 0.010406597 -0.0023057323 0.01479836 0.019946365
-0.0074446583 -0.008161527 -0.007289112 0.019514203 -0.008019067 -0.0014170032 0.03859995 0.04680656
0.029340576 0.034621418 0.002437087 0.025188498 0.011776551 0.017999116 0.005476526 -0.021577908
0.0025173198 -0.005320609 0.014196827 -0.0059395223 0.0075857285 -0.014990563 0.009526416 0.011427479
-0.009447159 0.001564109 0.0011217823 0.009471184 0.015319781 -0.014097664 -0.011775329 0.0023651146
0.017808624 0.0069559086 0.020319328 0.016941743 0.008491322 0.025998905 -0.0017365676 0.019645019
-0.00209827 0.004558985 0.0014437621 -0.010805836 -0.0039039366 0.01277312 -0.007599781 -0.0036775572
-0.0064293314 -0.010342184 -0.0038614334 -0.0019146345 0.0075883446 0.013955288 0.0013938694 -0.016120074
-0.0031820254 -0.016076058 0.019531325 -0.0015085437 -0.008777413 0.0114945015 0.009585703 0.0057483884
0.007348951 0.012552977 0.0032277752 0.0014267471 0.004837943 0.008711455 -0.018187484 -0.002906967
0.0009121212 0.012177182 0.007231546 -0.009890005 0.010493685 -0.00064876577 0.020950856 0.015831593
00000000: 2459 223d 04d8 313d 7082 893c 757a 063c
00000010: 5dcc 7ebb 6a24 43bc 9ade a8b9 455d b3bb
00000020: 22fe 473c 3067 27bc 2e39 c3bb c741 1b3b
00000030: 9474 86bb fba9 003b a5a4 6abc 6ec9 87bb
00000040: 0e5d 013d 7474 b73c af02 403c 1567 f53c
00000050: 3748 883a f34b 293b 9a51 0bbb aa87 b23c
00000060: bfa2 e63c f246 d73c cddd b03c a6be 48ba
00000070: f63c ee3c 139e 9bbb 5af7 83bb e262 b8bc
00000080: 6de6 a3bb 5a73 163c fe94 eaba fcf3 c1bc
00000090: 1bbc 7fbc 8670 cebb 329c 633c 79d1 1a3b
000000a0: 2790 2a3c a15a efba 2eff 1f3c ba10 953b
000000b0: 41b5 f1bb 6ac0 af3c 3f1f 26b9 813b 6c3c
000000c0: 6ec1 613c 18ce efbb 84a4 ebba 2911 113d
000000d0: fe54 863c 54e3 813c ff31 0abc c1c6 923c
000000e0: 5067 843c 1f63 553c 83ad 29bc 7c99 343c
000000f0: c99e c13c 82cd 373c 0b73 85bc b4ae 033c
00000100: e10b 6bbc 47dc 1c3b 2830 2dba 8ec4 dfbb
00000110: a455 f6bb 04fa ecbb de17 0abc 66e9 6abc
00000120: a729 c63c 89c4 2a3c 8679 673c eda6 fd3c
00000130: b6d3 a2ba fe72 e9bb 0e06 2c3c 7eaa 8a3b
00000140: 489b 273d c7e2 32bc 3fef b53c 1ca8 28bb
00000150: b806 613c dde9 5d3c 7676 9e3c bca7 773b
00000160: 4ee5 403c f8d8 1bbc 4943 743c 6fee 72bb
00000170: 2a71 083c 295e 413b a283 15bc 1f31 0c3c
00000180: 6e59 673c 5878 0b3c 2342 463c 537f fb3c
00000190: 3bd8 bcbb fd62 983c d52b 3dbc 7e5c 90bc
000001a0: c360 623c 252c c73a 5e75 833c 2b04 0c3d
000001b0: f14f 543c 0cde 5a38 a1f6 363c baf5 24bc
000001c0: 63cb 713c 01ff 2abc d84b c4bc 8caa 62bc
000001d0: 7550 b33c ff4d 34bc 15fe 54bc 13b7 a93b
000001e0: 0ee4 dcb9 c6d1 4bbc cf5b fabb b72c 173c
000001f0: 58e7 64bc 6458 673c 6d89 8e3c b974 e13c
00000200: 35af 813c 7d87 08bd 1ece 0d3d 4f52 843b
00000210: 2ea7 07ba 5b67 c43c 9cdb ab3c 8f52 c53a
00000220: 1211 993b e7d8 37bc e7c1 1bbb f074 afbb
00000230: 9e56 8b3b 16ca 96bc d9c3 a0bb 5a02 c2bb
00000240: 7cd7 a3bb 2414 843c 08aa a1bb f403 553c
00000250: 6c1d b83c 03f2 483c 585f 393c 6bcf 75bc
00000260: cab6 693a 7256 d73b fb90 15b9 a1fc 56bb
00000270: cae7 1c3d cf18 2f3c 5fd6 a43c f3d2 113c
00000280: c4b7 aeba 34a8 4d3c db3c ac3b b241 843c
00000290: 7a77 473c ce21 b5bc 166f 413c 4f9a 7c3c
000002a0: ef8d 1bbc a54c 8f3c 7c9d 693b 52d9 2b3c
000002b0: 6e80 2a3c c51b 17bb d274 723c 8f66 a33c
000002c0: 52f2 f3bb edb7 05bc 81d9 eebb 40dc 9f3c
000002d0: 6862 03bc bdba b9ba fb1a 1e3d 3cb8 3f3d
000002e0: a65b f03c 30cf 0d3d 89b7 1f3b 1c58 ce3c
000002f0: 6ff2 403c e272 933c 6e74 b33b 27c4 b0bc
00000300: 9ef9 243b 8158 aebb cf99 683c 53a0 c2bb
00000310: b491 f83b fa9a 75bc af14 1c3c 523a 3b3c
00000320: 42c8 1abc ca02 cd3a c508 933a 062d 1b3c
00000330: d2ff 7a3c e3f9 66bc 4fed 40bc 0a00 1b3b
00000340: 64e3 913c 64ee e33b b874 a63c 69c9 8a3c
00000350: 301f 0b3c a8fb d43c 8a9d e3ba 97ee a03c
00000360: 2183 09bb 8a63 953b 9e3c bd3a f60a 31bc
00000370: 30d9 7fbb 5946 513c 9507 f9bb 2c03 71bb
00000380: 24ad d2bb 4472 29bc 1a10 7dbb 79f4 faba
00000390: a6a7 f83b b8a4 643c 7fb2 b63a 3f0e 84bc
000003a0: 8789 50bb f0b1 83bc 2800 a03c 54ba c5ba
000003b0: 23cf 0fbc 6f53 3c3c 5a0d 1d3c fa5c bc3b
000003c0: 78cf f03b 00ab 4d3c 1589 533b b001 bb3a
000003d0: 9b87 9e3b 7eba 0e3c ebfd 94bc d082 3ebb
000003e0: 6b1b 6f3a ce82 473c 9bf6 ec3b b009 22bc
000003f0: b4ed 2b3c ef11 2aba 21a1 ab3c 42b1 813c

fc1.bias f4 [10]
0.029683001 -0.06195109 -0.00034071604 0.03275769 -0.06535477 0.11294015 0.0365999 0.021420585
-0.06885557 -0.09466535
00000000: c429 f33c 6dc0 7dbd 22a2 b2b9 ed2c 063d
00000010: b9d8 85bd 2a4d e73d c7e9 153d 397a af3c
00000020: 2604 8dbd e8df c1bd
