models/A1 - DT (Trainable).pt (torch, 137941 bytes, 4 tensors)

conv1.weight f4 [5, 1, 3, 3]
00000000: 6335 0dbf 119c 803e 6ffb 673e e589 19bf
00000010: afd8 61bf 8c19 40bf 596c d13d 25a3 55bf
00000020: a273 4a3f 0aed 683f e456 253f 077b 5b3f
00000030: 35e5 32be 0467 483f 9d07 0abf 99ec c8be
00000040: 0e6c 2b3f 6e07 053f 29f1 85be 7e57 88be
00000050: 06bf 1bbf 9714 3f3f df5f 27bf ce14 1dbe
00000060: 161b 413f bbf1 36be eaa4 0e3f 32bd 413f
00000070: 1048 0dbe cb0b 003d 1f0c e2be d8db d2bc
00000080: c2a8 5b3f 5e9e 793f 0839 973e b3eb ecbd
00000090: 6937 843f c37b d6be a23e 333f 7863 0bbf
000000a0: 4e9a bcbb cb7f 5fbf 6803 703e 1b01 603e
000000b0: cd9d e5be
-0.55159587 0.2511907 0.22654508 -0.59976035 -0.8822126 -0.7503898 0.10225744 -0.83452064
0.7908269 0.9098669 0.6458571 0.857346 -0.17470248 0.7828219 -0.53917867 -0.3924301
0.66961753 0.5196446 -0.26160553 -0.2662925 -0.60838354 0.7464079 -0.6538066 -0.15339968
0.75431955 -0.1786565 0.5572039 0.75679314 -0.13797021 0.031261247 -0.44149873 -0.025739595
0.8580438 0.97507274 0.295357 -0.115683936 1.032941 -0.41891298 0.70017445 -0.5444865
-0.0057556992 -0.8730437 0.234388 0.21875422 -0.44846955

conv1.bias f4 [5]
00000000: 0591 9a3e 6db6 323c dd33 623d e462 d73b
00000010: b670 bd3d
0.30188766 0.0109077515 0.055225242 0.006573068 0.092500135

fc1.weight f4 [10, 3380]
00000000: 85aa 873b d932 573c 7473 35bc a49b c03b
00000010: 61a0 de3c 5d38 86ba ffaa b1bd 94b6 a9bd
00000020: 7a86 f7bc 8ad5 94bd 0a46 363d 80b5 093e
00000030: 403d fd3d 242f 053e 0e95 243e 9001 e23d
00000040: d8e4 543d 7363 463d eed3 a1bc ae19 05be
00000050: da7f 26be d6ae ebbc a27c 9b3c 72f0 373c
00000060: d037 91b9 ca75 8f3c f15a ff3b 8598 56bc
00000070: aff6 003d 5e1e 113d c234 dd3c 206c aebd
00000080: 3100 babc b428 1f3d 0462 bcbd c37a 7cbd
00000090: 4d8e bc3d ec59 b13d 8aac a93d 1473 6c3d
000000a0: a660 863d 46de af3d aabc 013e 2ae3 b43d
000000b0: 2319 c73b 1374 0abe 1312 4bbe e6b5 19be
000000c0: 9010 c2bc 5981 8abb 1b60 7b3c d72c d03b
000000d0: b2b2 473c bee0 2d3d c4ed aabb 11a1 a33b
000000e0: 9974 6ebd a475 d5bd 9c4d 84bc aa13 5ebd
000000f0: f31e bdbd 3334 0fbd 99c0 443d 9d41 153e
00000100: 0fbd fe3d a52d 853d 26da 6e3c 907b ab3d
00000110: f1be 0b3d 5752 b33d d50e 27bd e2d3 87bd
00000120: b701 fdbd 614a 16be de10 ddbd e122 ef3a
00000130: 931b 05bb e6f2 2f3a 3c39 b13c de6f d5bb
00000140: ae96 333d 9fc0 39bd ad64 0abe a9ea a7bd
00000150: 1fb2 4e3c 1e71 58bd 52d2 01be 51ec 34bd
00000160: 21aa 833d 2872 313e 05c2 0a3e 042f 8f3d
00000170: 1fc6 9d3d acb7 bf3d 367e 643d ec42 693d
00000180: c25b 66bd d078 47bd fc20 87bd 6c18 19be
00000190: c73e 26be 77c5 81bd 1d50 ceb9 6ea1 383c
000001a0: 2adf f33c bd37 4fba fc69 13bc 9f26 90bd
000001b0: 7a5b e4bd ad09 c1bc c428 a23d 32a6 88bd
000001c0: 2f65 a2bd e289 b2bc 8d20 2c3d 5a0c fb3d
000001d0: 8c2f 353d bc17 103d 300e 4f3d d0bf 263d
000001e0: 62c4 5d3c eb46 bc3d 15e2 8cbc aa23 b1bc
000001f0: 1c41 f73a 89a3 babd 286c 08be 04d5 bfbd
00000200: a8fc 04bd 85df 8d3c 6af6 3cbc 7650 923c
00000210: eb91 68bc 3be8 8dbd cbaf 19be 6ddd dbb8
00000220: 8bf5 e23c 0551 1abe bd56 01be f76a c7bd
00000230: 21d6 ca3c 7238 933d 727c 8a3d 7e08 673d
00000240: b0bc 123d 568a b93c 3f7e 6c3d 2e67 21bd
00000250: 1498 a73c b431 96bd 6a84 d2bc 25c4 5cbd
00000260: e9cb f6bd f4e6 dbbd 4355 19bd f6d2 0fbc
00000270: df62 b03c 9618 56bc f414 d5bc 8fef b5bd
00000280: 3a07 d9bd 6f40 0abd 5b6f 42bc a017 36be
00000290: 3ee7 13be 683f 17bd b79d 1e3d db07 26bd
000002a0: eecd 13b9 ba92 08bc c971 033c 7db1 c5ba
000002b0: 55a8 fe3c 164e 2ebb 19b2 2dbd 1e28 b2bd
000002c0: 5e04 98bd 8f27 63bd 69c5 b6bd bec9 dcbd
000002d0: 8bb2 81bd d724 1fbb aea5 8a3c 7356 ca3b
000002e0: 5716 91bc 0059 acbd 4636 acbd ae93 f8bc
000002f0: 0ddc 96bd 0771 41be f62b 29be 9839 e3bc
00000300: 2ec0 813d a23b 7cbc f1f1 0b3a d4a3 e0bb
00000310: 20e4 043d 1a74 613a 11fb 1c3d c7c2 c6bd
00000320: 91ae 91bd c573 06be 115c 09be 6a49 55bd
00000330: 71e3 8abd 2093 aebd 4ac3 c4bd 888b b2bb
00000340: bce3 ac3b ab00 c9bc 0303 91b9 8b93 19bd
00000350: 5534 b4bd 9ef1 57bd 168d e3bc d87b 2abe
00000360: e61b 20be bb3d 1cbd 5b41 5e3d 3ee5 ca39
00000370: 9919 1bbd ee87 2bbc 2961 e93b 48b2 0cbd
00000380: 9105 c33b 9e2a f5bc 6eb9 6dbd 0689 bbbd
00000390: 131e d1bd 945a 52bd b510 6fbd a82d a0bd
000003a0: ad56 a6bd 59a9 40bc 2911 123d 596f 583c
000003b0: ca55 6d3d 9d7c 5cbc ca14 29ba 8656 30bd
000003c0: 69e3 353c cee0 07be da57 e8bd caf1 19bd
000003d0: b580 513c 9704 6a3c e1a1 9dbc 6504 3d3c
000003e0: e676 03bd 37f6 37bc 5f30 bebb 1254 73bd
000003f0: 93df f7bd c9a6 e7bc baee a03c 7dde 073d
0.0041402006 0.013134682 -0.011074889 0.005877929 0.027176084 -0.0010240186 -0.08675193 -0.08286777
-0.03021549 -0.07267292 0.04450039 0.13448143 0.12365198 0.13006264 0.16072485 0.11035454
0.051976055 0.048434686 -0.019754376 -0.12998077 -0.16259709 -0.028769892 0.018980328 0.01122676
-0.0002769814 0.01751222 0.0077928235 -0.013097887 0.031485256 0.03542935 0.027002696 -0.08516717
-0.02270517 0.038857177 -0.091983825 -0.061640512 0.09206829 0.08659729 0.08284862 0.057726935
0.06561403 0.08587317 0.12669626 0.088323906 0.0060759946 -0.13520841 -0.19831114 -0.15010795
-0.023689538 -0.004226845 0.015342738 0.0063530016 0.0121886 0.04245066 -0.005216332 0.004993566
-0.058216665 -0.10422829 -0.016150288 -0.05421797 -0.09234419 -0.03496189 0.048035238 0.1457581
0.12438404 0.06502847 0.014578378 0.08373177 0.034117643 0.087559395 -0.04078563 -0.0663221
-0.12353843 -0.14676811 -0.10794233 0.0018244648 -0.0020310625 0.0006711915 0.021633737 -0.0065135797
0.04384487 -0.045349713 -0.13514967 -0.08199055 0.01261571 -0.052842252 -0.12677887 -0.04417068
0.06428934 0.17328703 0.13550575 0.069913894 0.07703804 0.093612045 0.055784427 0.056948587
-0.05623985 -0.0486992 -0.06598088 -0.14950722 -0.16234885 -0.063364916 -0.0003935107 0.011268957
0.029769499 -0.0007904729 -0.008997437 -0.070386164 -0.1115026 -0.023564184 0.07917932 -0.06672324
-0.079294555 -0.021794263 0.04202323 0.12258215 0.044234797 0.035178885 0.05055064 0.04071027
0.013535591 0.09193214 -0.017197648 -0.021623451 0.0018864009 -0.09113223 -0.13322508 -0.093668014
-0.032467514 0.017318496 -0.011533359 0.017860632 -0.014194946 -0.0692906 -0.15008466 -0.000104839775
0.027704975 -0.15069969 -0.12630744 -0.09737199 0.024760308 0.071885005 0.06762017 0.056404583
0.035824478 0.022648972 0.057737585 -0.03940504 0.020458259 -0.07333699 -0.025697906 -0.053897996
-0.120506115 -0.1073741 -0.037434828 -0.008778324 0.02153152 -0.013067385 -0.026010968 -0.08883583
-0.105970815 -0.033752855 -0.0118673695 -0.1778245 -0.1444368 -0.036925703 0.038724627 -0.040534835
-0.00014095727 -0.008335764 0.008022734 -0.0015082803 0.031086126 -0.0026596836 -0.042406175 -0.08699058
-0.07422708 -0.055457648 -0.08924372 -0.10780667 -0.063328825 -0.0024283433 0.016924705 0.0061748563
-0.017710848 -0.08415413 -0.08408789 -0.030343857 -0.0736619 -0.18890773 -0.16520676 -0.027737424
0.063354835 -0.015395077 0.0005338481 -0.0068554673 0.03244412 0.00086003693 0.038325373 -0.097051196
-0.07113374 -0.131301 -0.13414027 -0.052071966 -0.06781662 -0.085241556 -0.09607561 -0.0054487623
0.0052761715 -0.024536451 -0.000276588 -0.037494224 -0.08799044 -0.05272066 -0.027777236 -0.16648805
-0.15635642 -0.03814481 0.054261547 0.0003869924 -0.03786621 -0.01046942 0.007122178 -0.03434971
0.0059515913 -0.029927548 -0.058038168 -0.091569945 -0.10210814 -0.051355913 -0.058365542 -0.07821208
-0.08122001 -0.011759126 0.035660896 0.013210141 0.057943143 -0.0134574445 -0.0006449936 -0.043051265
0.011101582 -0.1326935 -0.11344881 -0.037584104 0.012787034 0.014283321 -0.019242229 0.011536692
-0.032095812 -0.011228136 -0.005804106 -0.059406348 -0.1210319 -0.028277772 0.019645084 0.033171166

fc1.bias f4 [10]
00000000: df97 1dbb 79b2 8abb d810 e63c 00b5 803a
00000010: 16c7 41bc 8a6d 86bc 9bdb 283b ef29 9c3c
00000020: c354 60bd bb32 1bbb
-0.002404682 -0.0042327014 0.028084204 0.0009819567 -0.011827251 -0.016409654 0.002576566 0.019062964
-0.054768335 -0.002368136
