models/A1 - HF (Frozen).pt (torch, 137911 bytes, 4 tensors)

conv1.weight f4 [5, 1, 3, 3]
00000000: 0000 803f 0000 0000 0000 0000 0000 0000
00000010: 0000 803f 0000 0000 0000 0000 0000 0000
00000020: 0000 803f 0000 0000 0000 0000 0000 803f
00000030: 0000 0000 0000 803f 0000 0000 0000 803f
00000040: 0000 0000 0000 0000 0000 803f 0000 803f
00000050: 0000 803f 0000 0000 0000 0000 0000 0000
00000060: 0000 0000 0000 0000 0000 0000 0000 803f
00000070: 0000 0000 0000 0000 0000 803f 0000 0000
00000080: 0000 0000 0000 803f 0000 0000 0000 0000
00000090: 0000 803f 0000 803f 0000 803f 0000 803f
000000a0: 0000 803f 0000 803f 0000 803f 0000 803f
000000b0: 0000 803f
1.0 0.0 0.0 0.0 1.0 0.0 0.0 0.0
1.0 0.0 0.0 1.0 0.0 1.0 0.0 1.0
0.0 0.0 1.0 1.0 1.0 0.0 0.0 0.0
0.0 0.0 0.0 1.0 0.0 0.0 1.0 0.0
0.0 1.0 0.0 0.0 1.0 1.0 1.0 1.0
1.0 1.0 1.0 1.0 1.0

conv1.bias f4 [5]
00000000: 0000 0000 0000 0000 0000 0000 0000 0000
00000010: 0000 0000
0.0 0.0 0.0 0.0 0.0

fc1.weight f4 [10, 3380]
00000000: 4957 03bb 6dc6 143d 2b27 f23a b787 93bb
00000010: 183c 83bc 9989 84bc 254d 25bb ef96 11bc
00000020: 8851 173c 36d7 5dbc 1068 f5bb b68f a93b
00000030: f2d9 94b9 46d3 743b c355 85bc c5cb f3bb
00000040: c821 013d 14f9 ba3c efa8 383c 4dbc f43c
00000050: ae08 28bb 41aa 27bc 0fad a0bc c941 acbb
00000060: 5c51 4c3c 5cd0 75b9 b91e aa3a 4d4c bdbc
00000070: ef87 ae3c 104a 3fbc 9166 f3bb 6105 eabc
00000080: b43e 08bc 62a6 053c 029c 90bb 45d8 e3bc
00000090: 1e7b 9abc 9f9b e7bb 2f3a 6c3c 1a29 a43b
000000a0: f5b3 4c3c 424d 4abb 9c66 1b3c 2e31 3e3b
000000b0: ad75 17bc 3f9d ab3c c947 d4ba 9aa4 2c3c
000000c0: 4321 b03b 0ef0 a9bc 1e09 cbbc cabc 833c
000000d0: 5102 24bc c788 473b 1424 98bc 2b00 6a3c
000000e0: 0e30 5f3c 0f0c 173c 06fd 6abc 37c8 273c
000000f0: 19fd b63c 658d 003c dc77 9ebc 60e7 b53b
00000100: a14b 83bc caa7 633b 76fd 2aba e41c 09bc
00000110: 2740 2cbc 7854 18bc 8200 44bc 4ae2 8dbc
00000120: d932 c63c 7ab9 023c b25f 233c e58d c33c
00000130: 5500 79bc 7574 15bd 7422 70bc 93a4 64bc
00000140: f1a5 223d 2849 81bc 199a a63c 3a07 cdbb
00000150: 8430 353c 78d8 333c ad28 8e3c 6491 f33a
00000160: 9a99 0f3c ad38 3dbc be0f 623c 59f6 b0bb
00000170: a4ef d53b 079e fb39 f1c0 46bc d0b0 bb3b
00000180: e4e3 3a3c 40d4 9f3b 47ca 233c be8d f73c
00000190: 2bf5 22bc c998 523c ff13 bfbc 07e5 3dbd
000001a0: 2a95 87bb 1b50 44bc 0f3a 173c 73dc 073d
000001b0: 0a97 313c e949 1bbb c6cb 143c 9ca4 62bc
000001c0: 9441 4f3c 23e4 3abc e5a9 d9bc 2f16 86bc
000001d0: 4fb9 a93c c79c 3ebc d3b6 71bc 5237 4c3b
000001e0: bc68 03bb 63e4 6bbc d76c 2fbc 9ffd c63b
000001f0: f839 88bc a3c0 4f3c b86f 823c 3a79 ba3c
00000200: bbb5 b13b 12b9 78bd e35f a63c 35a7 d1bb
00000210: 4f75 ddbb 5d73 a73c d209 aa3c 8347 05ba
00000220: 7660 403b b242 71bc fd72 a7bb 04c1 cdbb
00000230: ee3e 253b 4fd5 abbc cc47 dcbb ecdb e4bb
00000240: b7d4 c7bb 9345 6c3c ff0a f1bb a898 573c
00000250: 68ca ac3c 6276 0c3c 5b2a 083c aa6a 93bc
00000260: 7903 62ba 3ac2 3e3b cf38 0dbc 2b2c afbc
00000270: c702 013d 8495 363b 7fc0 903c 350b bb3b
00000280: 7bb6 1abb 5fdd 413c 591b 873b a576 673c
00000290: 8e9c 2b3c ff46 cabc 1426 2e3c 84d9 613c
000002a0: a0e6 36bc ed68 873c f476 ec3a fed5 183c
000002b0: 4b58 1e3c 3181 56bb 46ff 623c 0ef1 933c
000002c0: 590a 2ebc 207a 39bc 0fae 17bc bba9 7d3c
000002d0: d876 84bc d6fb 36bc 17fa 083d d08b 343d
000002e0: 63c5 d63c ca34 0a3d 45ae 2f3a e5bc c83c
000002f0: 33d7 383c 4cce 8b3c 8c4f a43b 661f c4bc
00000300: e4aa a939 d2c7 c8bb f347 4f3c 632c d7bb
00000310: da33 c53b 78ff 85bc 8de7 123c 6a7c 2a3c
00000320: c99c 36bc ca8e 933a d7b8 57ba 3296 ce3b
00000330: 7a46 4a3c 8cff 99bc 5492 9fbc 5dab 33bc
00000340: 6453 ed3b 8491 f2ba e295 9d3c ee56 853c
00000350: 6fe3 fc3b b7cb d13c 0ff9 0cbb 1470 a33c
00000360: b07e 10bb 159d 583b 8f00 c9b9 c7d3 55bc
00000370: 98b0 9dbb cd97 383c 9766 11bc 190a 95bb
00000380: db77 d6bb 7b4e 38bc c765 afbb 520f 24bb
00000390: c628 c83b 9f23 3d3c ad84 ccba 6809 b3bc
000003a0: 7d04 37bc d67b efbc 194d 643c 02fb 1bbc
000003b0: c1c8 65bc f768 253c e54c 0a3c 18a8 913b
000003c0: d58e d53b d449 4d3c b80d 573b 6153 333a
000003d0: 1355 353b a62e da3b 23b1 a1bc a383 6ebb
000003e0: 21a4 f2b9 237e 2c3c b98d f33b ba11 28bc
000003f0: 3e93 0c3c 3558 0dbb 7144 9a3c 455b 673c
-0.002004104 0.036322046 0.0018474808 -0.0045022625 -0.016019866 -0.016178893 -0.0025222984 -0.008886083
0.009235747 -0.01354008 -0.007489212 0.0051746024 -0.00028391142 0.0037357374 -0.016276246 -0.0074400627
0.031526357 0.022823848 0.011270746 0.029874945 -0.002563994 -0.010233463 -0.01961377 -0.0052568656
0.012470569 -0.0002344264 0.0012979127 -0.023107672 0.021305053 -0.011675373 -0.0074279984 -0.028567018
-0.008315731 0.008157345 -0.004413129 -0.027813086 -0.018857535 -0.007068112 0.014418169 0.0050097825
0.012494077 -0.0030868803 0.009484913 0.0029021013 -0.009244365 0.020949004 -0.001619571 0.010537291
0.005375059 -0.02074435 -0.02478462 0.016081233 -0.010010318 0.0030446516 -0.01857189 0.014282267
0.013622297 0.009219184 -0.014342552 0.010240606 0.022337483 0.007846211 -0.019344263 0.0055512637
-0.016027274 0.0034737461 -0.0006522754 -0.0083687045 -0.010513342 -0.009297483 -0.011963012 -0.017319817
0.024194168 0.007978791 0.009971546 0.023871372 -0.015197833 -0.036488015 -0.014656652 -0.013955253
0.039709035 -0.015781954 0.020337151 -0.006256965 0.01105893 0.010976903 0.01735338 0.0018582758
0.008764649 -0.011549157 0.013797699 -0.0054004607 0.0065288115 0.0004799219 -0.012130962 0.005727865
0.011406872 0.004877597 0.009996957 0.030218955 -0.009946148 0.01285381 -0.023324965 -0.046360996
-0.004137655 -0.011981989 0.009230151 0.03316922 0.010839233 -0.0023695177 0.0090817865 -0.013833191
0.012649912 -0.011406931 -0.02657027 -0.016368 0.020718245 -0.011634058 -0.014753061 0.0031160903
-0.002005144 -0.014397713 -0.010707102 0.0060727145 -0.016629204 0.0126802055 0.015922412 0.022762883
0.0054232753 -0.06072337 0.020309394 -0.0063981065 -0.006758369 0.020440752 0.020756636 -0.00050842034
0.002935437 -0.014725374 -0.005110143 -0.006279113 0.002521451 -0.020975737 -0.006722426 -0.0069842245
-0.0060983556 0.014420885 -0.007356047 0.013158955 0.021092609 0.008573147 0.00831088 -0.017995197
-0.0008621733 0.0029107467 -0.008619501 -0.021383366 0.03149679 0.0027860114 0.017669914 0.005708123
-0.0023607302 0.011832564 0.004123133 0.014127408 0.010474337 -0.024692057 0.010629196 0.01378477
-0.011163384 0.016529525 0.0018040822 0.009328363 0.009664605 -0.0032730813 0.013854807 0.01805928
-0.010622584 -0.011320621 -0.009257807 0.015482361 -0.01616995 -0.011168441 0.03344163 0.044078648
0.026217168 0.03374175 0.00067016884 0.024504134 0.011281776 0.017066143 0.0050143655 -0.023940753
0.00032361515 -0.006127336 0.012651431 -0.0065665706 0.006018144 -0.016357169 0.008966339 0.010405639
-0.011145779 0.0011257764 -0.00082291424 0.006304526 0.0123459045 -0.018798612 -0.019478954 -0.010966149
0.007242607 -0.0018506502 0.019236509 0.016276803 0.007717542 0.025609834 -0.0021510755 0.019950904
-0.0022048168 0.0033052613 -0.00038338124 -0.01305098 -0.0048123114 0.011266661 -0.008874557 -0.004548323
-0.0065450496 -0.01124918 -0.005352709 -0.0025033546 0.006108376 0.011544137 -0.0015603505 -0.021855071
-0.011170504 -0.029233854 0.013934397 -0.009520294 -0.014024914 0.010095826 0.008441185 0.004445087
0.006517271 0.012529809 0.0032814573 0.00068407325 0.0027669116 0.006658393 -0.019737786 -0.003639438
-0.00046280122 0.01052812 0.007432666 -0.010258133 0.008580027 -0.0021567468 0.018831464 0.014120881

fc1.bias f4 [10]
00000000: 4de5 7d3d 7c6d 1cbe a5b5 f03a a9e9 ba3d
00000010: 3f1b 2bbe 8f85 bf3e d77e b73d 260e 35bd
00000020: 4541 06be 7923 8bbe
0.061986256 -0.1527614 0.0018364681 0.091265984 -0.16709612 0.37406585 0.0895974 -0.044202946
-0.13110836 -0.271755
