models/A2 - DT (Trainable).pt (torch, 165861 bytes, 6 tensors)

conv1.weight f4 [5, 1, 3, 3]
-0.5708281 0.05715364 -0.051583838 -0.037068933 -0.65443766 -0.925265 0.2808898 -0.7965846
0.59341425 0.92247736 0.6436441 0.8671655 -0.23090622 0.85899514 -0.6040161 -0.44236523
0.7245792 0.49285913 -0.34009436 -0.18039775 -0.60036373 0.65591896 -0.55575585 -0.1390226
0.6617854 -0.1324174 0.5249062 0.7345808 -0.24959762 0.052348282 -0.42847028 -0.12668149
0.85220534 0.9197921 0.22594264 -0.22779761 0.87133455 -0.49426818 0.6925249 -0.62052095
0.053295776 -0.7509714 0.19338074 0.31068277 -0.31504595
00000000: ca21 12bf ef19 6a3d 9349 53bd 98d5 17bd
00000010: 3a89 27bf 2bde 6cbf cad0 8f3e f8ec 4bbf
00000020: ffe9 173f 7a27 6c3f dcc5 243f 8ffe 5d3f
00000030: ae72 6cbe 1be7 5b3f cda0 1abf b27d e2be
00000040: 067e 393f 0858 fc3e d920 aebe 30ba 38be
00000050: 70b1 19bf 4eea 273f 0446 0ebf f15b 0ebe
00000060: c56a 293f 6d98 07be 4160 063f 7d0d 3c3f
00000070: 8596 7fbe 276b 563d 7560 dbbe cbb8 01be
00000080: 212a 5a3f 7f77 6b3f 825d 673e c743 69be
00000090: c80f 5f3f b810 fdbe 5049 313f 76da 1ebf
000000a0: ac4c 5a3d a93f 40bf 9a05 463e d011 9f3e
000000b0: b44d a1be

conv1.bias f4 [5]
0.15633272 0.022855029 0.09104211 0.06018596 0.11083828
00000000: af15 203e 783a bb3c 4974 ba3d 8e85 763d
00000010: 2eff e23d

conv2.weight f4 [7, 5, 3, 3]
0.20630887 0.52647465 0.40318805 -0.056233034 0.10671216 0.008501977 0.15176934 0.37454042
0.25026676 0.4620709 0.1438436 -0.32395902 0.26004803 -0.27169755 0.08102616 -0.28099597
0.062347185 0.14439723 0.29720303 0.36700168 0.00049103674 -0.10888796 0.28165004 0.40927956
0.26823834 -0.11888166 -0.005423552 0.44410107 -0.1812307 -0.17478587 0.15140659 -0.2872771
-0.11305487 -0.17217025 0.16435458 -0.3343568 0.13561659 -0.11372158 -0.2762478 -0.021749428
-0.26121527 0.035843387 0.006711293 -0.066736825 0.21957472 -0.116814196 -0.5205907 -0.337942
-0.25143084 -0.45495233 0.14046575 0.21457043 -0.4622468 0.14242023 0.3836763 0.21813492
-0.26138043 0.38626847 0.27198184 -0.23770449 0.10193601 -0.35374615 -0.21623574 -0.27033487
0.16012757 0.4261493 0.02262659 -0.038293254 0.10750877 0.32535517 0.38977525 0.16748942
0.3429655 0.25778764 0.17020263 0.16662782 -0.29552168 -0.10417436 0.03708769 -0.3460109
-0.019472213 -0.22050694 0.032024242 -0.21811315 0.23292787 0.2523079 0.20778824 0.063338995
-0.047949053 0.3952911 0.10637115 -0.029505227 -0.15545702 0.15668525 0.20587079 0.3514007
-0.31653076 0.054705575 -0.38586584 -0.2732511 0.20070887 -0.13780756 0.27377358 -0.08683341
-0.0051998277 0.19423407 0.040800024 -0.24427186 0.45870167 0.089911655 0.10024335 0.22523046
0.47595033 0.49930283 -0.06965837 0.32607633 0.115548566 -0.303376 -0.13897507 -0.06832401
0.16684966 0.036568563 0.065229446 -0.03314724 0.34975192 -0.06043081 0.040905844 0.30148867
0.16131142 0.12712914 0.107800245 0.25540832 -0.03282205 0.23422025 -0.29456165 0.0131794885
0.33240107 0.06419 0.022498002 -0.2580087 0.1527346 -0.3103668 0.19990416 0.19475816
0.052439034 -0.33567992 0.3751096 0.24964987 0.29006827 -0.33119574 -0.28604499 0.10899129
-0.10702007 0.13987984 -0.026106969 0.09457897 -0.06761579 -0.29280132 0.026786398 -0.13938284
0.010581827 0.2014873 -0.27409413 0.09919539 -0.12179981 -0.31490698 0.36318868 -0.17905769
0.32374892 -0.27093247 0.32513186 -0.25016224 0.2264774 0.16799323 -0.11903493 0.36357585
-0.40229383 0.056471173 0.29932356 0.22667746 0.62971693 0.009293039 0.2808023 0.17284238
0.55767953 0.09044028 0.17435962 -0.13679405 0.36812395 0.025806408 -0.16800529 -0.43342423
-0.2404997 -0.22558507 -0.5382986 0.33370042 -0.14872232 -0.40093985 -0.12747464 0.22917548
-0.07796016 0.18967366 0.23820221 0.56277466 0.19847046 0.08266116 0.2987705 -0.3330208
0.29132926 -0.24944486 -0.026112605 0.4297891 0.36360845 0.08692621 -0.16248883 -0.22532228
0.39458984 -0.14836194 0.42546242 0.07674911 -0.14172243 0.41154853 0.098943986 0.32366207
0.23834756 0.024592048 0.20395163 -0.074035965 0.17285046 0.40846077 0.13413906 0.35588259
0.293786 0.22113857 -0.07247535 -0.43429148 -0.3538881 0.116192214 -0.1832131 0.038250543
-0.10311407 0.01568434 0.34411433 0.4136037 0.4193427 0.46342227 0.25196317 0.40427887
0.12445523 -0.07271999 0.066191696 -0.113534704 0.10198332 0.37653217 0.30632997 -0.11006236
00000000: a242 533e 0bc7 063f aa6e ce3e 9c54 66bd
00000010: e88b da3d e04b 0b3c 6c69 1b3e c3c3 bf3e
00000020: f722 803e 8f94 ec3e bd4b 133e f5dd a5be
00000030: 0425 853e f11b 8bbe 0bf1 a53d b4de 8fbe
00000040: c35f 7f3d dedc 133e ff2a 983e a5e7 bb3e
00000050: ebb8 003a a700 dfbd 6f34 903e 178d d13e
00000060: 8956 893e 3a78 f3bd 0db8 b1bb 3761 e33e
00000070: 8a94 39be 11fb 32be 540a 1b3e fc15 93be
00000080: 5089 e7bd 664d 30be 914c 283e d130 abbe
00000090: 13df 0a3e dce6 e8bd 5a70 8dbe db2b b2bc
000000a0: 02be 85be 84d0 123d 68ea db3b 51ad 88bd
000000b0: 32d8 603e 483c efbd 6f45 05bf bc06 adbe
000000c0: 8bbb 80be 83ef e8be 41d6 0f3e 5ab8 5b3e
000000d0: 9dab ecbe 9cd6 113e 3871 c43e c35e 5f3e
000000e0: a8d3 85be fbc4 c53e 3441 8b3e ce68 73be
000000f0: d4c3 d03d 371e b5be e76c 5dbe 5569 8abe
00000100: 7bf8 233e 3e30 da3e 665b b93c 63d9 1cbd
00000110: 8f2d dc3d f494 a63e 9f90 c73e 5982 2b3e
00000120: 2d99 af3e befc 833e 9949 2e3e 7ca0 2a3e
00000130: 9e4e 97be 5e59 d5bd 43e9 173d 5728 b1be
00000140: 3184 9fbc 92cc 61be da2b 033d 0e59 5fbe
00000150: a584 6e3e 802e 813e 71c6 543e e0b7 813d
00000160: 3a66 44bd 9863 ca3e 1ed9 d93d f2b4 f1bc
00000170: 2030 1fbe 1972 203e cbcf 523e cbea b33e
00000180: 5210 a2be f412 603d 3590 c5be 91e7 8bbe
00000190: a086 4d3e 6d1d 0dbe 0d2c 8c3e b7d5 b1bd
000001a0: 5163 aabb 4ce5 463e ed1d 273d 6722 7abe
000001b0: f2da ea3e 9a23 b83d 634c cd3d d0a2 663e
000001c0: c3af f33e 9fa4 ff3e 0ca9 8ebd 7af3 a63e
000001d0: baa4 ec3d 1954 9bbe 7b4f 0ebe 75ed 8bbd
000001e0: a3da 2a3e ebc8 153d 0497 853d 66c5 07bd
000001f0: af12 b33e 4c86 77bd e38c 273d b95c 9a3e
00000200: d22e 253e 242e 023e 60c6 dc3d e1c4 823e
00000210: 6a70 06bd 6fd7 6f3e c9d0 96be c8ee 573c
00000220: 7930 aa3e 0c76 833d bb4d b83c b719 84be
00000230: 7566 1c3e 66e8 9ebe adb3 4c3e af6e 473e
00000240: 50ca 563d 3dde abbe 5e0e c03e 37a4 7f3e
00000250: d483 943e 7d92 a9be 7d74 92be d336 df3d
00000260: 572d dbbd a93c 0f3e 48de d5bc 9eb2 c13d
00000270: 267a 8abd 0eea 95be 266f db3c 60ba 0ebe
00000280: 665f 2d3c b052 4e3e 1156 8cbe f426 cb3d
00000290: 2e72 f9bd 7d3b a1be def3 b93e e65a 37be
000002a0: 6bc2 a53e a9b7 8abe af77 a63e 4415 80be
000002b0: b1e9 673e 6b06 2c3e 96c8 f3bd 9d26 ba3e
000002c0: 75f9 cdbe 514e 673d f040 993e 231e 683e
000002d0: 2135 213f d541 183c 52c5 8f3e 98fd 303e
000002e0: 16c4 0e3f c138 b93d 548b 323e bd13 0cbe
000002f0: be7a bc3e f667 d33c 9409 2cbe c8e9 ddbe
00000300: 8e45 76be c6ff 66be f0cd 09bf c8da aa3e
00000310: aa4a 18be fd47 cdbe b688 02be faac 6a3e
00000320: 94a9 9fbd d039 423e 48eb 733e 0012 103f
00000330: d73b 4b3e 414a a93d 72f8 983e b481 aabe
00000340: 1c29 953e 796e 7fbe 1aea d5bc 510d dc3e
00000350: e32a ba3e 5e06 b23d 7963 26be e2ba 66be
00000360: ae07 ca3e 31ec 17be 36d6 d93e a32e 9d3d
00000370: af1f 11be 7db6 d23e 25a3 ca3d 09b7 a53e
00000380: 6211 743e 4375 c93c b2d8 503e 2ba0 97bd
00000390: b6ff 303e c521 d13e c05b 093e 3e36 b63e
000003a0: 1e6b 963e 2672 623e f56d 94bd 745b debe
000003b0: d230 b5be 2ff6 ed3d 379c 3bbe 9aac 1c3d
000003c0: 782d d3bd 727c 803c c12f b03e ddc3 d33e
000003d0: 16b4 d63e af45 ed3e 5101 813e a4fd ce3e
000003e0: 62e2 fe3d 38ee 94bd 838f 873d e284 e8bd
000003f0: a2dc d03d d3c8 c03e 48d7 9c3e 6068 e1bd

conv2.bias f4 [7]
0.027526611 0.049668923 0.03582425 -0.007194337 0.09362481 0.037700213 0.04222986
00000000: 7d7f e13c a471 4b3d 73bc 123d 79be ebbb
00000010: 5dbe bf3d 8a6b 1a3d 38f9 2c3d

fc1.weight f4 [10, 4032]
0.042968463 0.005169626 0.024212042 -0.046219945 -0.1360646 -0.07630211 -0.059821326 -0.05201059
0.0010493867 0.060556415 0.018768104 3.259287e-05 -0.044488862 -0.1138177 -0.019588705 -0.098207355
0.025926199 -0.013095177 -0.026824823 0.0096754115 0.017246515 0.03501739 -0.0034724232 0.019020015
0.0056942347 0.01881201 0.0054704915 -0.054370556 -0.1319842 -0.08154094 -0.04631899 -0.009869749
-0.00586751 -0.020600874 -0.029080158 -0.03440098 -0.01961589 -0.01511075 0.027468417 0.06653137
0.03235955 0.033621646 0.007258506 0.0019989044 0.011912302 -0.042039327 0.027501479 0.02753268
0.024702922 0.014807153 -0.05448576 -0.09762332 -0.058500994 -0.08321688 -0.04105102 0.031627666
0.034608066 -0.03828242 0.012318419 -0.01365492 0.021037154 0.000661317 -0.0058762003 0.01095405
-0.049470004 -0.025356041 0.011416732 -0.014397172 -0.052624624 -0.02417112 -0.020071391 0.0426265
-0.052484337 -0.050213154 -0.0797209 -0.08017782 -0.027807022 0.029828567 -0.04479932 -0.039091606
-0.0104490705 -0.032893676 0.030949667 -0.014090799 0.05838322 0.0057624127 -0.04213074 -0.024398776
-0.014762822 -0.035987847 0.012920652 -0.0063859094 0.0021871342 -0.004163888 -0.030891668 0.017252797
-0.0490203 -0.100832194 -0.08469394 0.029445188 0.010894971 0.02654712 -0.043193206 -0.026763624
-0.033297356 -0.042303942 0.01991963 -0.04585021 -0.0021153598 0.034647387 -0.032468576 -0.020848969
-0.051361606 -0.041829072 -0.0069913887 0.041596092 -0.0054341075 -0.004476734 0.038935624 -0.011629422
-0.030395148 -0.052095544 -0.043662038 0.022776274 -0.031643227 0.04045827 0.06342806 -0.025402745
-0.051621243 -0.0606362 -0.061029237 -0.034889456 0.024810713 -0.02105125 -0.010041907 0.0051692445
-0.02421309 -0.0061618784 0.05862368 0.032500476 -0.015351342 -0.029041272 0.009577508 -0.015468272
-0.07391984 -0.060360502 -0.024246955 0.01780986 -0.04987622 0.0181154 0.02445533 -0.045059886
-0.036675546 -0.044506967 -0.063963704 -0.010378077 -0.00047194093 -0.015250076 0.04104013 -0.00632569
0.0035142424 -0.02732202 0.050783433 0.054619946 0.002235543 -0.0060675615 -0.046584345 0.04318515
-0.041306 -0.059657242 -0.051530942 -0.029708508 -0.019964293 -0.008806106 0.031931125 -0.056453336
-0.06599351 -0.07044471 -0.0070623457 -0.05753649 0.026176186 -0.028402444 -0.0062686913 -0.026324973
-0.03866666 -0.0150103895 -0.022371856 0.052738357 -0.014180116 0.002032383 0.00053572585 0.01792577
-0.07738651 -0.07381928 -0.013131112 -0.028434364 0.0064934744 -0.039142467 -0.031217221 -0.013966756
0.017538106 -0.097515754 -0.069269225 -0.005360167 -0.081808314 -0.009375676 -0.047753256 0.0023698905
-0.036076095 -0.024056485 -0.025988782 -0.024664411 0.0066459593 -0.019267883 0.012339575 0.029645305
-0.03752396 -0.038087357 0.012253171 0.02251401 -0.068369515 -0.03685075 -0.05883891 -0.024123777
-0.0657248 -0.08438055 0.018773848 -0.083909936 -0.05888911 -0.01626883 -0.017090194 -0.0037784637
0.007153782 0.016686643 0.0061199474 -0.016521107 -0.02505476 0.023135733 0.03834548 0.018527161
-0.045875635 -0.02605197 -0.028175592 0.03003469 -0.021563027 -0.0114442445 -0.0492672 -0.023625951
-0.0004697612 0.028435584 0.011905285 -0.04760611 -0.031800214 -0.03701226 -0.054549616 0.014620359
00000000: b3ff 2f3d f765 a93b 5558 c63c 2051 3dbd
00000010: 8554 0bbe 4844 9cbd 3507 75bd 0e09 55bd
00000020: 938b 893a 010a 783d 91bf 993c 54b4 0838
00000030: f439 36bd 4119 e9bd 7e78 a0bc f020 c9bd
00000040: 2e63 d43c 278d 56bc bbbf dbbc 9e85 1e3c
00000050: 9048 8d3c 656e 0f3d 9891 63bb ddcf 9b3c
00000060: b496 ba3b a51b 9a3c cf41 b33b a9b3 5ebd
00000070: de26 07be f0fe a6bd fbb8 3dbd bab4 21bc
00000080: 3e44 c0bb 2ac3 a8bc 8339 eebc 0be8 0cbd
00000090: 81b1 a0bc 1493 77bc 7205 e13c 9941 883d
000000a0: 738b 043d dab6 093d c3d8 ed3b 0d00 033b
000000b0: d12b 433c 6e31 2cbd c84a e13c 378c e13c
000000c0: c85d ca3c b399 723c 762c 5fbd bcee c7bd
000000d0: bd9e 6fbd 9d6d aabd 1d25 28bd 038c 013d
000000e0: 30c1 0d3d 07ce 1cbd 32d3 493c e3b8 5fbc
000000f0: 1c56 ac3c 3c5c 2d3a 248d c0bb 9e78 333c
00000100: 0fa1 4abd 79b7 cfbc 3f0d 3b3c 1ee2 6bbc
00000110: eb8c 57bd 8302 c6bc c26c a4bc 2099 2e3d
00000120: d1f9 56bd 4fac 4dbd b644 a3bd 4534 a4bd
00000130: 8dcb e3bc 0a5b f43c 7e7f 37bd 851e 20bd
00000140: 9432 2bbc 85bb 06bd 288a fd3c 18dd 66bc
00000150: 3e23 6f3d 9fd2 bc3b 4891 2cbd f1df c7bc
00000160: c3df 71bc fe67 13bd 24b1 533c e440 d1bb
00000170: 0656 0f3b 3971 88bb 8610 fdbc bd55 8d3c
00000180: 83c9 48bd 1c81 cebd 0474 adbd 0937 f13c
00000190: d280 323c 5979 d93c 5ceb 30bd 633f dbbc
000001a0: cf62 08bd e646 2dbd 7e2e a33c 6ecd 3bbd
000001b0: d9a1 0abb 6bea 0d3d c5fd 04bd 75cb aabc
000001c0: 8c60 52bd f654 2bbd 0518 e5bb aa60 2a3d
000001d0: 9910 b2bb 91b1 92bb f67a 1f3d 5589 3ebc
000001e0: 3fff f8bc 2362 55bd f7d6 32bd 4f95 ba3c
000001f0: 549c 01bd 92b7 253d 92e6 813d 6b19 d0bc
00000200: cc70 53bd aa5d 78bd cbf9 79bd 3fe8 0ebd
00000210: d63f cb3c ac73 acbc d086 24bc c462 a93b
00000220: 885a c6bc 95e9 c9bb 621f 703d 381f 053d
00000230: 3284 7bbc f6e7 edbc fbea 1c3c a36e 7dbc
00000240: 4963 97bd 933c 77bd 8da1 c6bc fce5 913c
00000250: 024b 4cbd bf66 943c 8b56 c83c b790 38bd
00000260: 1939 16bd f04c 36bd 67ff 82bd cf08 2abc
00000270: d76e f7b9 74db 79bc b219 283d bc47 cfbb
00000280: 344f 663b 6ed2 dfbc 4a02 503d 2ab9 5f3d
00000290: 3082 123b 65d2 c6bb 3acf 3ebd e9e2 303d
000002a0: 7b30 29bd 275b 74bd 1c12 53bd 425f f3bc
000002b0: 288c a3bc 7c47 10bc 36ca 023d 9d3b 67bd
000002c0: 9b27 87bd 5145 90bd 406b e7bb 62ab 6bbd
000002d0: 716f d63c 3eac e8bc 9869 cdbb 78a7 d7bc
000002e0: ef60 1ebd 23ee 75bc 2f45 b7bc 2d04 583d
000002f0: b853 68bc bb31 053b f46f 0c3a 10d9 923c
00000300: d27c 9ebd 902e 97bd e023 57bc 2fef e8bc
00000310: 36c7 d43b da53 20bd 42bb ffbc d2d4 64bc
00000320: 13ac 8f3c 57b6 c7bd 06dd 8dbd 57a4 afbb
00000330: 1e8b a7bd 6f9c 19bc eb98 43bd 2a50 1b3b
00000340: 87c4 13bd 1b12 c5bc 6de6 d4bc 050d cabc
00000350: 59c6 d93b aed7 9dbc ee2b 4a3c b6da f23c
00000360: b9b2 19bd 7d01 1cbd 86c1 483c 4d6f b83c
00000370: 5105 8cbd d0f0 16bd 1201 71bd 3a9f c5bc
00000380: b99a 86bd b6cf acbd 9dcb 993c f9d8 abbd
00000390: b535 71bd 3646 85bc bc00 8cbc 1aa0 77bb
000003a0: 466a ea3b 6db2 883c d789 c83b 4657 87bc
000003b0: a43f cdbc 2687 bd3c 2610 1d3d 46c6 973c
000003c0: 17e8 3bbd f16a d5bc 80d0 e6bc 4f0b f63c
000003d0: f2a4 b0bc a480 3bbc 67cc 49bd 368b c1bc
000003e0: 484a f6b9 bef1 e83c 620e 433c a0fe 42bd
000003f0: f140 02bd 2b9a 17bd 6b6f 5fbd 3b8a 6f3c

fc1.bias f4 [10]
0.0032660605 -0.0075868997 0.023287913 -0.0044784606 -0.021920877 -0.008245522 0.009899579 0.004811904
-0.024242183 0.0031070018
00000000: 670b 563b 879b f8bb 4bc6 be3c 0dc0 92bb
00000010: 6993 b3bc 3a18 07bc d831 223c 2dad 9d3b
00000020: 8b97 c6bc d79e 4b3b
