models/A2 - HF (Frozen).pt (torch, 165825 bytes, 6 tensors)

conv1.weight f4 [5, 1, 3, 3]
000000 00 00 80 3f 00 00 00 00 00 00 00 00 00 00 00 00
       1.0 0.0 0.0 0.0
000010 00 00 80 3f 00 00 00 00 00 00 00 00 00 00 00 00
       1.0 0.0 0.0 0.0
000020 00 00 80 3f 00 00 00 00 00 00 00 00 00 00 80 3f
       1.0 0.0 0.0 1.0
000030 00 00 00 00 00 00 80 3f 00 00 00 00 00 00 80 3f
       0.0 1.0 0.0 1.0
000040 00 00 00 00 00 00 00 00 00 00 80 3f 00 00 80 3f
       0.0 0.0 1.0 1.0
000050 00 00 80 3f 00 00 00 00 00 00 00 00 00 00 00 00
       1.0 0.0 0.0 0.0
000060 00 00 00 00 00 00 00 00 00 00 00 00 00 00 80 3f
       0.0 0.0 0.0 1.0
000070 00 00 00 00 00 00 00 00 00 00 80 3f 00 00 00 00
       0.0 0.0 1.0 0.0
000080 00 00 00 00 00 00 80 3f 00 00 00 00 00 00 00 00
       0.0 1.0 0.0 0.0
000090 00 00 80 3f 00 00 80 3f 00 00 80 3f 00 00 80 3f
       1.0 1.0 1.0 1.0
0000a0 00 00 80 3f 00 00 80 3f 00 00 80 3f 00 00 80 3f
       1.0 1.0 1.0 1.0
0000b0 00 00 80 3f
       1.0

conv1.bias f4 [5]
000000 00 00 00 00 00 00 00 00 00 00 00 00 00 00 00 00
       0.0 0.0 0.0 0.0
000010 00 00 00 00
       0.0

conv2.weight f4 [7, 5, 3, 3]
000000 e3 56 8d 3d 27 b1 10 3e 23 47 99 be ed ce 8b 3e
       0.06901338 0.14130078 -0.29937086 0.2730631
000010 15 a0 15 be 63 b6 54 3e 05 ee 33 bc 2a ce a4 3e
       -0.14611848 0.207727 -0.010982041 0.3218854
000020 38 02 c9 3d 44 e7 7b be d5 6a a5 be 26 95 6c 3e
       0.09814876 -0.2459994 -0.3230807 0.2310377
000030 db a4 91 be ba b9 8d 3e 9e e1 c4 be 8f c2 f6 3c
       -0.28446087 0.2768076 -0.38453382 0.03012207
000040 c6 81 18 be 73 89 f9 bd 67 6a 71 3e 7e fb ca be
       -0.14893255 -0.121844195 0.23575746 -0.39644998
000050 2f 74 93 be 74 3f bf 3e 9e 1c a5 3e a8 c9 18 3d
       -0.2879958 0.37353098 0.32248396 0.03730169
000060 17 bc 16 3e 73 0c b6 3e d4 fe 73 3d 5f 40 0a be
       0.14720188 0.35556373 0.059569195 -0.13501118
000070 46 66 c5 3e 5b d7 97 be ac 3c 39 3e 21 20 87 3d
       0.3855459 -0.2965649 0.1808955 0.06597925
000080 84 93 9b 3e 01 0c bd 3e dc 27 80 3e a8 f4 85 be
       0.30385983 0.3692322 0.2503041 -0.2616322
000090 be 5c df 3d 2f 0c 36 bd 6f e2 ac be 6d 36 34 3d
       0.10906361 -0.044445213 -0.33766505 0.043997217
0000a0 ff a7 03 3e be 18 9e bb af 5e f6 bd 3c a8 38 be
       0.12857054 -0.004824727 -0.12029778 -0.18032926
0000b0 d4 b8 14 3c a9 cf 4c be 15 5c a5 be f0 51 22 be
       0.00907727 -0.20001091 -0.32296816 -0.15851569
0000c0 9b 32 ac 3e 76 20 a6 3d 54 0b 81 be 8a b6 9f be
       0.3363236 0.0811166 -0.25203955 -0.31193954
0000d0 d1 77 a4 3e 23 ae 34 3e 60 2f 7f 3d 65 83 91 be
       0.32122663 0.17644553 0.06230104 -0.2842056
0000e0 ee 2a 0a bd 03 56 73 3e b1 7e 1e be 99 ea c8 3e
       -0.033732347 0.2376328 -0.15478016 0.39241484
0000f0 17 fc 7a 3e 97 6b c8 3e c3 1d 4a be a2 db ad be
       0.24510227 0.39144585 -0.19737916 -0.3395663
000100 00 c9 46 3c d8 27 14 be ba c8 a1 be 3e 62 ae be
       0.012132883 -0.14468324 -0.31598455 -0.34059328
000110 37 07 3d bd ea 50 b7 3d c5 ec 85 3e e5 2b 86 3e
       -0.04614946 0.0895098 0.26157203 0.26205364
000120 ec df 9a be 70 3b 89 3e f2 90 51 be 54 1f f7 bc
       -0.30248964 0.2680316 -0.20465448 -0.030166306
000130 15 dd 76 3e 3f fe aa bd c5 b3 4f be d5 01 4c be
       0.24107774 -0.08349275 -0.2028342 -0.19922574
000140 e0 54 98 be 66 37 a7 3e ce 2e 9f 3e 3c d1 57 be
       -0.29752254 0.32659453 0.31090397 -0.2107591
000150 f7 7d 6e be 37 03 85 3e a5 f7 ea bd 83 9f 10 bc
       -0.2329024 0.25979015 -0.11473016 -0.008827093
000160 f9 ab 1d be 3f a0 28 3e 43 8c 01 be 95 e4 c4 3e
       -0.15397634 0.16467379 -0.12651162 0.38455644
000170 7c bc 4b 3e d3 8b da 3c 43 ac 1b be fa a6 a0 3e
       0.1989612 0.026678002 -0.15202431 0.31377393
000180 17 ac bf 3e 88 f5 be 3e 3b 1a 99 be d8 af 56 3e
       0.37435982 0.372967 -0.29902825 0.20965517
000190 63 ea 4c be a7 f4 99 3e 6b 02 86 be f2 45 69 bd
       -0.20011286 0.30069467 -0.2617372 -0.05695147
0001a0 4e c6 72 3e 09 7d 4c bd 1d 31 3f 3d 41 b1 17 3c
       0.2370846 -0.04992393 0.046677697 0.009258569
0001b0 6e fa a7 3c a8 26 03 3d 14 b1 8c 3e 48 46 fb 3c
       0.020505156 0.032019287 0.2747885 0.030673161
0001c0 fa fc 07 3e bc 01 76 3e c4 e1 07 be 33 7a 93 be
       0.13280097 0.24024099 -0.13269717 -0.28804168
0001d0 83 8f ac be 16 cd 44 3e c9 f6 26 be f1 5e e8 bd
       -0.3370324 0.19218859 -0.16305079 -0.11346234
0001e0 de 6a ab be 8b bf 45 3e 0e 7b 27 be 79 13 56 3e
       -0.3347997 0.19311349 -0.16355535 0.20905866
0001f0 be 88 39 be d7 a7 19 3e eb 30 47 3e fc 64 bc bd
       -0.18118569 0.15005432 0.19452254 -0.09198949
000200 b2 2f 74 be d3 97 58 be 35 d3 c0 3e 13 c8 9f 3e
       -0.2384632 -0.21151666 0.37661138 0.31207332
000210 67 98 b0 3c 6d e9 1e be 2f 53 71 be 45 37 7d 3e
       0.021557046 -0.15518732 -0.23566888 0.24728115
000220 04 c8 33 be 9c f3 91 3e 30 d2 1b 3e 97 57 ac 3e
       -0.17556769 0.28506172 0.15216899 0.33660576
000230 87 ba b9 3e 27 28 80 3e ef ad 4b 3e ac 1a 65 be
       0.36275122 0.25030634 0.19890569 -0.22373456
000240 46 c4 ac be 5c 0d 36 3d af 84 a5 bd 9e 2b ca be
       -0.33743495 0.044446334 -0.08081948 -0.39486402
000250 b6 0c be 3d 3d a7 af 3e bf 9b 60 be c2 bd 93 be
       0.09279768 0.3430728 -0.21934412 -0.2885571
000260 68 77 ed bb ab 9c 57 3d 96 4d af 3e 94 4a 18 bd
       -0.0072469003 0.052639645 0.3423888 -0.0371805
000270 cd 50 3c 3c 84 4e 57 3e 5b f6 64 3e 11 4e 96 be
       0.011493874 0.21026045 0.22359602 -0.29356435
000280 39 f9 93 3e cf 1e 20 3e db 7f 86 3e 9b 3e bb bd
       0.2890108 0.15636753 0.2626942 -0.091428004
000290 bc 87 80 3d 88 1f 5e be 68 c6 5a be 9d 6e 63 3e
       0.06275889 -0.21691716 -0.21364748 0.22210164
0002a0 0d ce a5 bc 66 6b 91 be ac d9 a5 be 6d 85 d1 3b
       -0.020239854 -0.2840225 -0.32392633 0.0063940794
0002b0 30 d8 7d be 1d 30 f1 bd 00 c7 a3 be 43 3d 08 be
       -0.247895 -0.11776755 -0.31987762 -0.1330462
0002c0 76 9a 98 3d db 6f 61 3e 71 7a c3 bd 0e 9d 98 3e
       0.07451336 0.22015326 -0.09544838 0.29807323
0002d0 44 73 eb 3c 81 9e 47 be 32 61 79 3e 12 91 9e 3e
       0.028741486 -0.19494058 0.24353483 0.30970055
0002e0 1a 00 ce 3d 4b eb d3 3e 66 2d 9d 3e e9 e0 46 be
       0.10058613 0.41390452 0.306987 -0.19421734
0002f0 dd 08 a0 3e 76 7a 73 be ca a9 42 be f9 b1 b3 3e
       0.31256762 -0.23777184 -0.19010082 0.3509672
000300 7f 3a 84 3e bc 61 9a 3e cc 83 48 bd 88 ce c8 3e
       0.2582588 0.3015269 -0.048953816 0.3922007
000310 56 32 3b 3e 5d ad df 3e 99 96 fe be 0c 43 66 be
       0.1828092 0.43686953 -0.49724272 -0.22486514
000320 cc 90 4f bd 96 c4 96 3e 47 cd 6e be 5e b0 0d bd
       -0.0506752 0.29446858 -0.23320495 -0.034592025
000330 bf be 0d 3e 5e 33 95 bd b3 07 d3 bd 15 16 99 be
       0.13842295 -0.07285188 -0.10304203 -0.2989966
000340 5c a8 ce 3d c6 6f cd bd f0 54 82 3c 9b 16 d4 3d
       0.10090706 -0.10031085 0.015909642 0.10355874
000350 48 67 ab bd 84 45 42 be df 0e 43 3e 1b bd e1 bd
       -0.08369309 -0.1897183 0.19048642 -0.11022397
000360 3c 56 7f be ac db 55 be 6c 44 e6 3d 12 60 76 be
       -0.2493524 -0.2088458 0.11243519 -0.24060085
000370 aa 44 e5 bb 04 77 e4 bd e1 68 7c 3d 6a 5c 5d 3e
       -0.006996711 -0.11155513 0.061623458 0.21617284
000380 7e a4 39 be 39 80 42 3c 45 8e 28 3e e5 ff 77 3e
       -0.18129155 0.011871391 0.16460522 0.2421871
000390 85 aa 9e 3e eb 33 1c bd af 43 e2 3e 59 da 34 be
       0.3098947 -0.03813545 0.44192263 -0.17661418
0003a0 d8 c7 38 be da 55 ce 3d 00 78 c8 bd d5 78 50 bd
       -0.18044984 0.10074969 -0.09788513 -0.050896484
0003b0 d6 1c 42 be 55 5f 55 be 37 37 b9 be d1 0d a6 be
       -0.18956313 -0.20837148 -0.36174938 -0.32432416
0003c0 bc 18 8b be 75 c8 ca be b7 bc be bd 86 f0 8f 3d
       -0.27167308 -0.39606062 -0.09313338 0.07028298
0003d0 14 ef 2d be f8 96 8c bd 3c bc b0 bd a9 02 ca 3d
       -0.16985732 -0.068647325 -0.08629653 0.09863789
0003e0 7a be b0 3c 93 75 27 be 61 20 ce bd bc f8 10 be
       0.021575201 -0.16353445 -0.100647695 -0.14157385
0003f0 28 23 d4 3e cf 57 e0 3e 67 38 62 bc 63 0b a0 3c
       0.41433072 0.43816993 -0.013807393 0.01953668

conv2.bias f4 [7]
000000 91 5d 02 3d fc c1 3f 3d 3b e6 95 3b 10 f9 6f 3c
       0.031827513 0.046815857 0.0045745648 0.0146467835
000010 fe e1 d9 3d cf bc 45 3e 13 b2 84 3e
       0.10638808 0.19310306 0.2591711

fc1.weight f4 [10, 4032]
000000 73 3d 14 3d 8a ff eb 3c 12 3b cf 3d d8 ca 8a bb
       0.036191415 0.028808374 0.10118689 -0.0042356066
000010 dd 54 58 bc 47 12 3f bd 59 0f 83 bd 39 b1 e3 bc
       -0.013203827 -0.04664829 -0.06399412 -0.027794467
000020 c8 0d 99 3c 30 d0 3b bd 18 a3 5a 3c d1 20 67 3c
       0.01868333 -0.04585284 0.013344549 0.014106945
000030 a4 df 27 3d 48 4b cb bb 29 ea 43 3c 63 25 1e 3d
       0.040984765 -0.0062040426 0.011957684 0.038609874
000040 27 c8 cb 3b 9d 64 53 bc 97 ef c3 bc c1 85 54 3d
       0.0062189284 -0.012902406 -0.023917956 0.05188537
000050 ce 92 1c bb e3 32 c5 bc 96 d6 bd bc 6d 65 0e 3d
       -0.0023891213 -0.024072116 -0.023173612 0.034764696
000060 0d 96 5d bd a1 e0 13 3d 92 2b 01 bc 8d 45 1f 3d
       -0.054098178 0.036102895 -0.007883923 0.03888469
000070 b0 6b 5e 3d 4d e0 0d 3d 4c 65 21 3d 56 c9 9f 3c
       0.054301918 0.034637738 0.039403245 0.019505184
000080 39 71 63 3c 1d 69 6d 3c 13 9c 59 bc 40 83 72 3c
       0.013881975 0.014490393 -0.01328184 0.0148018
000090 a3 81 0c bb 72 f2 f2 bc 5f d1 cf bc 2f b6 cb bc
       -0.0021439574 -0.029656623 -0.02536839 -0.024867145
0000a0 98 f9 b8 3c e5 14 9a 3b 97 c1 7e 3c ed 6e dc 3c
       0.022579953 0.004702198 0.015549085 0.026908362
0000b0 85 17 3f 3d a9 b3 a8 ba 22 79 7f 3c f2 65 1a 3c
       0.04665329 -0.0012870926 0.015592845 0.00942372
0000c0 a3 4e 84 bc 68 22 30 bd 7c a6 f6 bc 10 89 39 bd
       -0.016150778 -0.043001562 -0.030108683 -0.04529673
0000d0 10 e5 56 bd 50 e8 73 bd 4b ce 8c bd 4c d2 1f 3c
       -0.052464545 -0.059547722 -0.06875285 0.0097547285
0000e0 b9 00 5f 3b 24 01 c2 bc 0d 83 b0 bb c6 23 9a bb
       0.003402753 -0.023682185 -0.005386716 -0.0047039716
0000f0 fa 50 52 3b bc 6e 07 bd fa 10 b0 bb 5b 70 19 bb
       0.0032091723 -0.03306459 -0.0053731175 -0.0023412916
000100 f8 8b 0c 3d 1a ff 21 3c c3 bb f5 bc 91 36 0a 3c
       0.034313172 0.009887481 -0.029996758 0.008435861
000110 d5 fe 99 3a e0 f2 98 bc bb 56 f7 3b f5 ba 61 3d
       0.001174892 -0.0186705 0.007548181 0.055109937
000120 71 c5 34 bd 70 d3 a5 bd f7 3c d3 3b 7d 43 03 3c
       -0.044133607 -0.08096969 0.0064464766 0.008011696
000130 6e 2a da ba 6b 5d 96 bc 79 1d 87 3c 6f 05 03 bd
       -0.0016644725 -0.018355092 0.016493546 -0.031987604
000140 5f 87 01 bb 17 e1 42 bc 3c 8f 05 bd f8 27 9f bc
       -0.0019764525 -0.011894486 -0.032607302 -0.019428238
000150 9b 56 fc bb c3 c0 21 bc a8 78 21 bc d7 fc 56 bd
       -0.007700754 -0.009872618 -0.009855427 -0.05248722
000160 5f cd e8 bc 1e 31 95 bb 4d ed 26 bd a3 bc 0b bc
       -0.028418241 -0.0045529744 -0.04075365 -0.008528861
000170 c0 25 85 3b ea 28 1a ba 02 49 ab 3c 4d 76 87 3b
       0.004063338 -0.00058807305 0.020908836 0.0041339756
000180 0d fb cb 3c fd 52 f3 3c 79 0c d6 3c c7 bf 45 3c
       0.024899984 0.029702658 0.026128994 0.012069649
000190 fa 0d e4 3a f5 6a fa 3c 87 4e ca 3c ce 1c 70 bd
       0.0017399185 0.03056858 0.024695648 -0.05862122
0001a0 22 27 36 bd 30 e3 b5 bc 9c 7f 1e bb 70 f0 c3 b9
       -0.044470914 -0.022203058 -0.0024184948 -0.00037372438
0001b0 94 c1 01 3d 79 7b 31 bd 3a 1c 8c bd 5f 90 18 bd
       0.03167875 -0.043330643 -0.06841321 -0.037247058
0001c0 6a f7 6b 3c bb 99 7d bc 79 28 1b bd 26 81 a2 3b
       0.01440225 -0.015478547 -0.037880395 0.0049592433
0001d0 7e 1a 6b bc 0d e8 08 3b cb 81 0e bd 5e 18 e1 3c
       -0.014349578 0.0020890266 -0.03479175 0.02747744
0001e0 6b 97 d4 3c 2b e1 e8 3c 7c 0e 5e 3d d7 3d 58 3c
       0.025951108 0.028427681 0.054213032 0.0131983375
0001f0 37 a7 9f 3b 2f 76 71 3c 37 d4 29 3d cb 21 d3 bb
       0.0048722285 0.01473765 0.04146215 -0.0064432374
000200 9f a9 af bb 23 c7 53 bc 5b 38 72 3b 5f 16 df bc
       -0.0053607966 -0.012925896 0.003695986 -0.027232347
000210 bf b5 88 bc 35 82 e2 39 12 42 09 bd 6d 29 15 bd
       -0.016688226 0.0004320309 -0.033510275 -0.03641646
000220 e9 dd 05 3d 95 39 cf 3b 6b 12 da bc 1e 0f 82 3c
       0.032682333 0.006324003 -0.02662011 0.015876349
000230 9a be 93 bc 3f ca c2 3c 0f 82 15 3d 4c da f8 3a
       -0.018035222 0.02377808 0.036500987 0.0018985956
000240 4a 42 d4 bb 0e 5c 8a 3c a9 f1 9e 3d 6c 8e 05 3d
       -0.006477629 0.016889598 0.07760937 0.032606527
000250 e5 e5 fe 3c e8 c7 33 3d 82 12 59 bb f6 82 be 3c
       0.031115482 0.043891817 -0.0033122604 0.023255806
000260 b7 07 46 bd 4a dc ae bc 4a c7 f0 bc 87 ce 26 bd
       -0.0483472 -0.021345276 -0.029391903 -0.040724304
000270 d3 db a2 bc 82 0e 30 bd 95 9e c6 3a 0b 79 0a bd
       -0.019880211 -0.042982586 0.0015153462 -0.03380684
000280 3f b5 9c b7 4d 88 60 bc c7 2c 6e 3c 09 47 18 3c
       -1.8681048e-05 -0.013704372 0.014537043 0.00929428
000290 ec 31 67 bc 22 0c 78 3c 3d d8 ce 3a b4 54 23 bb
       -0.014111023 0.015139611 0.0015780997 -0.0024922313
0002a0 77 ac 99 bd 13 78 1e 3d c4 ee 2c 3d 47 3a e6 3d
       -0.07503598 0.03868873 0.042219892 0.11241584
0002b0 bc fb 4a 3d 1b e8 6a 3d c3 04 6a 3d 7e 3f 0e 3d
       0.04955648 0.05735026 0.057133447 0.03472852
0002c0 2e cd ad 3c af 50 0b bd 6f ac 82 bc a5 48 11 3d
       0.021216001 -0.034012493 -0.015951363 0.03546967
0002d0 f5 45 35 ba dc 93 b4 bc 9b 42 a2 3c 81 69 0a 3d
       -0.00069150265 -0.022043161 0.01980715 0.033792023
0002e0 8d ae c5 3c 86 f9 6e 3c 4c f1 00 bd 2e 7a 37 bc
       0.024131084 0.014585858 -0.03148012 -0.0111985635
0002f0 c8 39 b8 3c 7b a6 5a 3c e3 aa 18 bd b4 5d 1f 3a
       0.02248849 0.013345356 -0.037272345 0.00060793315
000300 ef 3a 37 bd 66 c3 2a 3d 09 03 5d 3d 16 5d b1 3c
       -0.044733938 0.041690253 0.053957973 0.021650832
000310 0f 35 cc 3c 37 3a 78 3c fa 27 cd 3c 0c 7e 0b bd
       0.024927644 0.015150598 0.025043476 -0.034055755
000320 98 e7 b8 bc b6 12 06 3d d6 00 49 3d 4e 08 89 b9
       -0.02257137 0.032732688 0.049073063 -0.00026136864
000330 cb 49 08 bd 5b 9b 24 bd 54 7c 5d bc a2 5d 72 3b
       -0.0332735 -0.04018722 -0.013518412 0.003698208
000340 c1 b7 d8 3b d9 57 2f 3c 09 17 4e bc 44 f0 21 b9
       0.006613702 0.010702097 -0.012578734 -0.00015443662
000350 d7 10 f0 ba 70 0c 2a 3d 97 44 44 3c ae 0d 33 bb
       -0.0018315566 0.041515768 0.011979244 -0.0027321386
000360 bd 7f 0d bd 4c e7 52 bc 57 19 24 3d 0b b0 29 3d
       -0.03454565 -0.012872528 0.04006323 0.041427653
000370 fb 25 41 3c 8b 63 3a 3b 84 a1 8a 3b f2 76 7a bc
       0.01178884 0.002844068 0.00423068 -0.015287148
000380 30 c7 f6 3b 26 6d d7 bc ce e7 29 bd bc c3 ed bb
       0.007531069 -0.026297163 -0.04148083 -0.0072559994
000390 66 0a 0a bd af 2f be 39 65 8e 33 bd 6e 8d 2d bc
       -0.033701323 0.0003627515 -0.04383697 -0.0105928015
0003a0 8b 04 2d bd ca 44 de 3c 56 0c cb bc 8e 0a 85 bc
       -0.04224066 0.02713241 -0.024786156 -0.016240384
0003b0 8e 15 ba bc 22 03 59 3d 9c dc c1 3c 2d f1 97 bc
       -0.022715356 0.052981503 0.023664765 -0.018547619
0003c0 35 f3 eb bd e2 0a 26 3d 76 53 b8 bc ac d0 d0 3c
       -0.115209974 0.040537722 -0.022500735 0.025490128
0003d0 11 2b ed 3c 93 4c 46 3c 4e 00 49 bb d2 29 91 ba
       0.0289512 0.012103218 -0.0030670348 -0.0011075085
0003e0 1e 58 09 ba dc c8 12 3d ad aa 56 3c 3e 2e 01 3d
       -0.0005239266 0.035836086 0.013102216 0.03153824
0003f0 23 d8 53 bd 7c 70 3e 3c 2c 59 00 bb db cf 62 bd
       -0.051719796 0.011623498 -0.00195844 -0.055374008

fc1.bias f4 [10]
000000 fa 71 3e 3c 5c 45 b0 bc 7a 7c 39 3d 9c 50 9a 3b
       0.011623854 -0.021517448 0.045284726 0.0047093164
000010 91 5d 47 bd f7 71 9b bc 29 31 c6 3b 61 fa be 3c
       -0.048673216 -0.018975241 0.006048341 0.02331275
000020 9f 0c 1a bd 90 8e 84 b6
       -0.037609693 -3.950503e-06
