models/A2 - HT (Trainable).pt (torch, 165861 bytes, 6 tensors)

conv1.weight f4 [5, 1, 3, 3]
1.0567667 0.021625118 0.03911984 0.036617335 1.0433794 0.066229105 0.0028874627 0.003600095
1.0632491 -0.026762655 0.07497853 1.0450969 0.005929216 1.1235664 0.048145004 1.0582397
0.11534969 0.024419393 1.0438716 1.0771781 1.0936311 0.019281138 0.044161055 0.058063764
0.014929807 0.027890328 0.02508825 1.0848682 0.0046778796 -0.05209757 1.112307 0.012323176
-0.03203301 1.130302 0.028592044 -0.025411874 1.1562784 1.1711456 1.0160561 1.1381379
1.0893186 0.9195013 1.034443 1.0602958 0.9077542
00000000: 2244 873f 2927 b13c 203c 203d 0ffc 153d
00000010: 758d 853f 20a3 873d 963b 3d3b 92ef 6b3b
00000020: 8c18 883f 5b3d dbbc 588e 993d bcc5 853f
00000030: de49 c23b 06d1 8f3f b233 453d 6674 873f
00000040: 753c ec3d 2e0b c83c 969d 853f f9e0 893f
00000050: 1bfc 8b3f 7af3 9d3c 39e2 343d 45d4 6d3d
00000060: 269c 743c 427a e43c e085 cd3c f6dc 8a3f
00000070: e648 993b 4364 55bd 1360 8e3f 25e7 493c
00000080: 0c35 03bd bcad 903f dd39 ea3c 902c d0bc
00000090: ee00 943f 19e8 953f 200e 823f 81ae 913f
000000a0: cb6e 8b3f 7064 6b3f a168 843f c6b7 873f
000000b0: 9462 683f

conv1.bias f4 [5]
0.1373678 0.008573459 -0.0005871169 0.019892551 -0.0015402149
00000000: 25aa 0c3e b277 0c3c c0e8 19ba b4f5 a23c
00000010: 09e1 c9ba

conv2.weight f4 [7, 5, 3, 3]
0.062474694 0.13959312 -0.2908274 0.26852393 -0.14923082 0.20942992 -0.014513686 0.31772313
0.09692669 -0.24716388 -0.321649 0.23541118 -0.28800368 0.27511808 -0.38220853 0.024996847
-0.1518377 -0.121910654 0.2325321 -0.39197135 -0.27583128 0.36856836 0.32123673 0.04271204
0.14315344 0.3523423 0.06016564 -0.13848664 0.3768282 -0.2924323 0.17788614 0.057247613
0.30524904 0.36619782 0.24215524 -0.26185274 0.10483602 -0.044642422 -0.33246902 0.039458454
0.12652287 -0.0030587069 -0.12506776 -0.18402468 0.0070333355 -0.19925518 -0.3218424 -0.15371057
0.33776528 0.0830561 -0.24719545 -0.30898866 0.3221888 0.17944582 0.061176546 -0.28642303
-0.032154325 0.23815873 -0.1537842 0.3948 0.24482052 0.39173976 -0.19441245 -0.3433187
0.00854384 -0.14397904 -0.31640372 -0.34133726 -0.043300066 0.09157856 0.26414955 0.26715386
-0.30360025 0.26680446 -0.20541514 -0.031615835 0.241021 -0.08115706 -0.20589156 -0.20101131
-0.29495153 0.325093 0.3103446 -0.21065708 -0.23303351 0.2610797 -0.112701245 -0.009643492
-0.15307592 0.16689314 -0.13086997 0.38030452 0.19423974 0.022137633 -0.1561576 0.30807146
0.36961794 0.36869404 -0.30502132 0.20652944 -0.20235054 0.2983283 -0.2654495 -0.05978424
0.23378049 -0.053280633 0.0436887 0.0048691416 0.018376665 0.030648366 0.2734778 0.026007626
0.12889881 0.23598024 -0.13489398 -0.2901268 -0.34043398 0.18759215 -0.16583087 -0.116320744
-0.3407776 0.1907391 -0.1668404 0.20224069 -0.18289572 0.1465184 0.19178112 -0.09483029
-0.24138604 -0.21491885 0.37342677 0.30823526 0.017763613 -0.15846716 -0.24057738 0.24308087
-0.1790814 0.28070024 0.14751776 0.33295506 0.357897 0.2463936 0.19751613 -0.22587137
-0.33748233 0.04684862 -0.07989336 -0.39676976 0.09324797 0.34229314 -0.22484511 -0.29064405
-0.0077727553 0.054528605 0.34691155 -0.03341854 0.00983249 0.21062376 0.22333123 -0.29598
0.28667703 0.15257668 0.26361424 -0.09154609 0.062298413 -0.21768007 -0.21537653 0.2199579
-0.023009282 -0.28802568 -0.32710293 0.0063868095 -0.24855588 -0.11854224 -0.32132283 -0.13455507
0.07368815 0.21694238 -0.09679292 0.2986502 0.045578454 -0.17699938 0.24970467 0.30996186
0.10195614 0.41135317 0.3009637 -0.19751644 0.30884355 -0.2636487 -0.19680154 0.34439093
0.2421283 0.29397112 -0.059128433 0.3764081 0.17350718 0.42547783 -0.5064334 -0.22007506
-0.048018474 0.28642485 -0.23181407 -0.03798256 0.13302211 -0.07501653 -0.111159846 -0.32659212
0.08176617 -0.10917843 -0.009816065 0.094175614 -0.091029264 -0.22037488 0.18359931 -0.11785155
-0.27268314 -0.21796589 0.10465903 -0.25592893 -0.016240323 -0.122107856 0.046297703 0.20697863
-0.1921535 0.021212352 0.17952701 0.2524373 0.32360303 -0.010883593 0.46110314 -0.16044733
-0.13813153 0.120938495 -0.102773316 -0.050910283 -0.19562784 -0.21359885 -0.3637904 -0.33085832
-0.280748 -0.39973414 -0.07849875 0.06538824 -0.17424676 -0.07730953 -0.09049325 0.097211145
0.021633208 -0.1689373 -0.09604185 -0.13145459 0.40569696 0.43322536 -0.008223171 0.011021028
00000000: 77e5 7f3d 80f1 0e3e 54e7 94be f87b 893e
00000010: f7cf 18be cc74 563e d0ca 6dbc 9bac a23e
00000020: 8081 c63d 8718 7dbe 2daf a4be a10f 713e
00000030: 3875 93be 47dc 8c3e d6b0 c3be 30c6 cc3c
00000040: 587b 1bbe 4bac f9bd e51c 6e3e 78b0 c8be
00000050: c239 8dbe feb4 bc3e 2479 a43e d2f2 2e3d
00000060: d196 123e 3666 b43e 3f70 763d 71cf 0dbe
00000070: a0ef c03e b0b9 95be c927 363e 797c 6a3d
00000080: 9a49 9c3e 487e bb3e 8bf7 773e 9011 86be
00000090: 44b4 d63d f9da 36bd 6139 aabe 309f 213d
000000a0: 368f 013e 9674 48bb c311 00be f770 3cbe
000000b0: e577 e63b 8d09 4cbe 87c8 a4be 4e66 1dbe
000000c0: 92ef ac3e 5119 aa3d ce20 7dbe c333 9ebe
000000d0: eef5 a43e a5c0 373e 4294 7a3d 0aa6 92be
000000e0: 41b4 03bd e2df 733e 9b79 1dbe 3a23 ca3e
000000f0: 3bb2 7a3e 1d92 c83e 0f14 47be 78c7 afbe
00000100: 76fb 0b3c 3e6f 13be abff a1be c2c3 aebe
00000110: 695b 31bd 8a8d bb3d 9c3e 873e 64c8 883e
00000120: 7e71 9bbe 989a 883e 5958 52be 9b7f 01bd
00000130: 36ce 763e ac35 a6bd 3dd5 52be e9d5 4dbe
00000140: e303 97be 9772 a63e 7de5 9e3e 7db6 57be
00000150: 56a0 6ebe 3dac 853e e9cf e6bd bdff 1dbc
00000160: efbf 1cbe 09e6 2a3e c702 06be 46b7 c23e
00000170: c8e6 463e fb59 b53c c7e7 1fbe 8bbb 9d3e
00000180: 903e bd3e 77c5 bc3e c12b 9cbe 747c 533e
00000190: fb34 4fbe 7dbe 983e ffe8 87be 52e0 74bd
000001a0: 2764 6f3e cb3c 5abd ecf2 323d 528d 9f3b
000001b0: a98a 963c 4812 fb3c 4805 8c3e f20d d53c
000001c0: 0dfe 033e cea4 713e a621 0abe 808b 94be
000001d0: 5d4d aebe 2818 403e 91cf 29be 9239 eebd
000001e0: 677a aebe 1c51 433e 36d8 2abe 2f18 4f3e
000001f0: 0449 3bbe eb08 163e 4562 443e 6236 c2bd
00000200: e72d 77be b013 5cbe cb31 bf3e 03d1 9d3e
00000210: ff84 913c 3745 22be eb59 76be 31ea 783e
00000220: 1d61 37be f1b7 8f3e e50e 173e 1679 aa3e
00000230: 473e b73e 9b4e 7c3e ab41 4a3e d34a 67be
00000240: 7cca acbe 57e4 3f3d 219f a3bd 6825 cbbe
00000250: cbf8 be3d 0c41 af3e cc3d 66be 4ccf 94be
00000260: 99b2 febb 6359 5f3d 649e b13e e1e1 08bd
00000270: 7418 213c c1ad 573e f1b0 643e b18a 97be
00000280: 55c7 923e 103d 1c3e 72f8 863e 847c bbbd
00000290: 9f2c 7f3d 86e7 5ebe aa8b 5cbe a53c 613e
000002a0: f67d bcbc 1a78 93be 097a a7be 7148 d13b
000002b0: 6f85 7ebe 46c6 f2bd 6d84 a4be cec8 09be
000002c0: d0e9 963d 2526 5e3e 5e3b c6bd aee8 983e
000002d0: 79b0 3a3d 533f 35be 95b2 7f3e 52b3 9e3e
000002e0: 61ce d03d e29c d23e ea17 9a3e c041 4abe
000002f0: be20 9e3e f6fc 86be 5886 49be 0254 b03e
00000300: 7bf0 773e 6283 963e a830 72bd 90b8 c03e
00000310: deab 313e 3bd8 d93e 9fa5 01bf 5b5b 61be
00000320: 05af 44bd 47a6 923e ab60 6dbe 9a93 1bbd
00000330: f336 083e 44a2 99bd c6a7 e3bd 1537 a7be
00000340: 0675 a73d f198 dfbd 90d3 20bc 25df c03d
00000350: 8d6d babd f4a9 61be 7501 3c3e 275c f1bd
00000360: 209d 8bbe 7332 5fbe 7957 d63d 1e09 83be
00000370: 6d0a 85bc af13 fabd a9a2 3d3d 35f2 533e
00000380: e3c3 44be 87c5 ad3c eed5 373e 763f 813e
00000390: 4caf a53e 1951 32bc b615 ec3e 4e4c 24be
000003a0: 5a72 0dbe 9aae f73d d17a d2bd 4d87 50bd
000003b0: aa52 48be a8b9 5abe bc42 babe 4366 a9be
000003c0: 34be 8fbe f4a9 ccbe f4c3 a0bd 45ea 853d
000003d0: be6d 32be 7554 9ebd 8654 b9bd a316 c73d
000003e0: 2038 b13c e6fd 2cbe 97b1 c4bd 089c 06be
000003f0: 83b7 cf3e b7cf dd3e 7bba 06bc 8b91 343c

conv2.bias f4 [7]
0.0244567 0.05229315 -0.010700472 -0.039596695 0.08391853 0.13816766 0.18464693
00000000: 6b59 c83c 5831 563d 0851 2fbc 2530 22bd
00000010: 7add ab3d d37b 0d3e 1614 3d3e

fc1.weight f4 [10, 4032]
0.033475358 0.02789887 0.077473804 -0.016835768 -0.02119229 -0.047268473 -0.062677495 -0.027569795
0.016668089 -0.045322735 0.013501971 0.011875658 0.0383871 -0.007367352 0.011544258 0.03609945
0.0041027013 -0.014238065 -0.026057614 0.04942067 -0.005124889 -0.024888746 -0.0230267 0.03212044
-0.035191532 0.020873066 -0.017586889 0.03763464 0.05131047 0.03229179 0.04060137 0.017599119
0.010719988 0.012788634 -0.015177273 0.013246814 -0.0016609615 -0.030878136 -0.025425423 -0.024130248
0.022390528 0.005083353 0.017149275 0.02610178 0.045261722 -0.0025736052 0.014693182 0.008080296
-0.017933058 -0.04661957 -0.034184452 -0.042629316 -0.05801801 -0.058761757 -0.0634315 0.009460482
0.0042884382 -0.024615731 -0.007967369 -0.010890822 -0.0031883123 -0.037434608 -0.010819101 -0.0048798826
0.032833725 0.009902955 -0.030004382 0.00856427 0.00042675066 -0.019440532 0.007930794 0.055078294
-0.032368805 -0.08361578 -0.00045871036 0.007669819 0.0019183782 -0.014810253 0.0153494375 -0.032527924
0.0027212915 -0.0071903234 -0.02853634 -0.019233625 -0.008460894 -0.010027043 -0.008185114 -0.05340575
-0.027892638 -0.0037209126 -0.038872737 -0.007828772 0.0058928714 -0.00021639692 0.021655852 0.0051412024
-0.00024945324 0.008021084 0.024738137 0.009795127 0.005153914 0.029776432 0.024964418 -0.05383343
-0.03928534 -0.017935054 0.0015290608 0.0028917103 0.03346231 -0.039703522 -0.06594234 -0.03660515
0.014146167 -0.014834972 -0.0356193 0.006258217 -0.01086263 0.0032655222 -0.034478888 0.028730847
0.004914679 0.015351596 0.053983103 0.017422013 0.008334875 0.0158966 0.0401408 -0.002207125
0.0013896746 -0.005378631 0.0063781734 -0.024286186 -0.014363123 0.0027340585 -0.02964839 -0.034419704
0.033306487 0.005437112 -0.026549242 0.01681819 -0.014947811 0.026106006 0.0368433 0.0024120188
-0.028328078 0.005102775 0.07367151 0.035679244 0.033231966 0.042119764 -0.0061468766 0.025942987
-0.04215062 -0.015603305 -0.026014222 -0.038055696 -0.015719842 -0.036937993 0.0018229764 -0.032033723
0.001073106 -0.014356464 0.01474634 0.009879391 -0.011082296 0.018197969 0.0022911965 -0.0025672747
-0.08972277 0.03243979 0.03550671 0.117454335 0.05352527 0.05481772 0.05422477 0.036823906
0.022077477 -0.03353707 -0.015617365 0.03375041 0.0020311684 -0.018004645 0.02343908 0.034219038
0.024071336 0.013499281 -0.032078885 -0.010780093 0.025137803 0.016454874 -0.035585985 0.00028998504
-0.053713046 0.040193774 0.056491572 0.024627365 0.025117613 0.014955019 0.02194261 -0.03283271
-0.022051003 0.031473123 0.052026697 0.0017936495 -0.030455953 -0.035362493 -0.010587594 0.0034785238
0.008035159 0.00956456 -0.013952216 -0.00059418415 0.00018272238 0.04426492 0.014414155 -0.002122683
-0.047593296 -0.02117737 0.036229543 0.041464508 0.012611643 -0.0006445481 0.0023155715 -0.0117927315
0.010719328 -0.02583553 -0.03886831 -0.005171305 -0.02922365 0.0048648505 -0.040078484 -0.01034658
-0.039897818 0.025931258 -0.026584856 -0.017538367 -0.021479059 0.05449014 0.024450012 -0.018595247
-0.113464184 0.031511046 -0.019639881 0.026104884 0.026168955 0.010584249 -0.0033451358 0.0022888703
0.00039590287 0.033638373 0.012169129 0.0327306 -0.045140315 0.012981315 -0.0010301021 -0.053973995
00000000: 751d 093d 2c8c e43c 96aa 9e3d 2aeb 89bc
00000010: 749b adbc 969c 41bd 0f5d 80bd 0dda e1bc
00000020: 848b 883c 55a4 39bd 5f37 5d3c 1f92 423c
00000030: cb3b 1d3d d469 f1bb 2124 3d3c 04dd 133d
00000040: f46f 863b c646 69bc c776 d5bc 546d 4a3d
00000050: afee a7bb 7ce3 cbbc 7da2 bcbc b990 033d
00000060: ff24 10bd fefd aa3c 6112 90bc c826 1a3d
00000070: ed2a 523d 6544 043d 9f4d 263d 072c 903c
00000080: e3a2 2f3c 6b87 513c 19aa 78bc 2a09 593c
00000090: 9fb4 d9ba 25f4 fcbc fa48 d0bc ccac c5bc
000000a0: 576c b73c 4192 a63b a37c 8c3c 66d3 d53c
000000b0: 5b64 393d eea9 28bb acbb 703c 3863 043c
000000c0: 59e8 92bc 2af4 3ebd ff04 0cbd 149c 2ebd
000000d0: 4ba4 6dbd 2bb0 70bd 60e8 81bd 2300 1b3c
000000e0: 0786 8c3b eea6 c9bc 9189 02bc 6b6f 32bc
000000f0: 01f3 50bb 0855 19bd 9942 31bc 6ce7 9fbb
00000100: a87c 063d 0140 223c c0cb f5bc 2751 0c3c
00000110: 81bd df39 c041 9fbc 29f0 013c c799 613d
00000120: 2795 04bd c03e abbd 107f f0b9 1b53 fb3b
00000130: 1772 fb3a b4a6 72bc 357c 7b3c 003c 05bd
00000140: b257 323b ce9c ebbb 0bc5 e9bc d68f 9dbc
00000150: 909f 0abc 7748 24bc db1a 06bc fdbf 5abd
00000160: 1a7f e4bc 8eda 73bb 0539 1fbd 4044 00bc
00000170: fd18 c13b 9be8 62b9 9d67 b13c 8877 a83b
00000180: 0cc9 82b9 dd6a 033c a2a7 ca3c be7b 203c
00000190: 2ae2 a83b b4ed f33c 2e82 cc3c 7180 5cbd
000001a0: aae9 20bd 89ec 92bc c46a c83a d982 3d3b
000001b0: c60f 093d 29a0 22bd c70c 87bd 48ef 15bd
000001c0: 53c5 673c 620e 73bc 8be5 11bd bb11 cd3b
000001d0: 2cf9 31bc 5f02 563b bc39 0dbd f45c eb3c
000001e0: 510b a13b 4385 7b3c 631d 5d3d 9cb8 8e3c
000001f0: 008f 083c 9639 823c ae6a 243d 6aa5 10bb
00000200: be25 b63a 3a3f b0bb ffff d03b d3f3 c6bc
00000210: 4e53 6bbc e42d 333b 2ee1 f2bc adfb 0cbd
00000220: 626c 083d cd29 b23b cc7d d9bc 4dc6 893c
00000230: aae7 74bc 43dc d53c 00e9 163d f612 1e3b
00000240: 4910 e8bc 2e35 a73b 17e1 963d 6624 123d
00000250: 3e1e 083d c685 2c3d bd6b c9bb 6386 d43c
00000260: 21a6 2cbd 01a5 7fbc c71b d5bc 4ae0 1bbd
00000270: e6c6 80bc 4b4c 17bd f0f0 ee3a cb35 03bd
00000280: 76a7 8c3a 6037 6bbc a29a 713c 2bdd 213c
00000290: 8592 35bc e813 953c e627 163b b93f 28bb
000002a0: 92c0 b7bd 96df 043d 7c6f 113d e68b f03d
000002b0: 503d 5b3d 8c88 603d cb1a 5e3d aad4 163d
000002c0: d3db b43c 2b5e 09bd fadf 7fbc df3d 0a3d
000002d0: 5a1d 053b 7a7e 93bc 5003 c03c 4329 0c3d
000002e0: 4031 c53c 172c 5d3c 2665 03bd fd9e 30bc
000002f0: cbed cd3c 5fcc 863c 9cc2 11bd 2209 9839
00000300: 3602 5cbd 3aa2 243d b563 673d 54bf c93c
00000310: 74c3 cd3c e505 753c fdc0 b33c 977b 06bd
00000320: 4ea4 b4bc f6e9 003d f219 553d e418 eb3a
00000330: c37e f9bc 43d8 10bd 9677 2dbc f2f7 633b
00000340: e6a5 033c acb4 1c3c d697 64bc 06c3 1bba
00000350: 2a99 3f39 224f 353d 5929 6c3c b61c 0bbb
00000360: 30f1 42bd 2a7c adbc 6e65 143d b0d6 293d
00000370: 11a1 4e3c e4f6 28ba d8c0 173b 4d36 41bc
00000380: 1fa0 2f3c 09a5 d3bc 6134 1fbd 0d74 a9bb
00000390: 7066 efbc 5369 9f3b 5629 24bd b484 29bc
000003a0: e56b 23bd ca6d d43c 7cc8 d9bc 9fac 8fbc
000003b0: daf4 afbc 0e31 5f3d 644b c83c 0f55 98bc
000003c0: e95f e8bd ba11 013d d1e3 a0bc e9d9 d53c
000003d0: 4760 d63c 8f69 2d3c 113a 5bbb df00 163b
000003e0: 2f91 cf39 64c8 093d 0761 473c 8610 063d
000003f0: 0de5 38bd 95af 543c 7e04 87ba d613 5dbd

fc1.bias f4 [10]
0.0019371979 -0.018942831 0.0434439 0.0041863066 -0.03886168 -0.011513254 0.0036332414 0.017281521
-0.025315661 -0.0035575826
00000000: 93e9 fd3a ff2d 9bbc 3bf2 313d 492d 893b
00000010: 6d2d 1fbd 16a2 3cbc ad1b 6e3b fa91 8d3c
00000020: ca62 cfbc 5526 69bb
